models/tflite_model.tflite (tflite, 200968 bytes, 12 tensors)

StatefulPartitionedCall/sequential/dense/MatMul/ReadVariableOp/transpose f4 [256, 21]
000000 ee e6 8b 3d 3b c9 85 bd 4c d7 ae bd ad 2a 8c bc
       0.06831156 -0.06532522 -0.08537158 -0.017110193
000010 ef 6a 9d 3d 86 dd 3b 3d 97 e4 9e 3d ac 85 de 3d
       0.076864116 0.045865558 0.07758444 0.1086534
000020 67 d6 92 3d 3f a0 95 3d 11 13 44 be e0 d5 b3 3d
       0.071698 0.07305955 -0.19147898 0.08781028
000030 b2 6c 6a 3e 8a 86 fe bc 72 c3 45 3e 6d 69 92 bc
       0.22893026 -0.031070013 0.19312838 -0.017872537
000040 2e b7 60 3e 81 ac 36 3e 94 77 02 3d 16 a0 a3 3d
       0.21944878 0.17839243 0.03185232 0.07989518
000050 70 ca 37 bf 54 0d a6 be f4 66 b2 bd 40 95 80 be
       -0.7179327 -0.32432044 -0.08711043 -0.2511387
000060 ed 6b 84 3d 27 00 d1 bd 94 c0 dc 3d fe 44 05 be
       0.06465898 -0.10205107 0.10778919 -0.130146
000070 56 0e 32 bd 70 ba e7 3e 1c 59 1c bf c5 cd 87 3e
       -0.043470703 0.45259428 -0.6107347 0.26524177
000080 81 a0 b3 ba 0f 50 ca be 42 80 f4 be 67 98 a4 3d
       -0.001370445 -0.39514205 -0.47754103 0.08036881
000090 6e 7f d3 39 35 99 a6 bd 33 30 97 be fb 0f 84 be
       0.0004034 -0.08134691 -0.2952896 -0.25793442
0000a0 c0 12 bb bd d6 9c 13 3e 79 5d b4 bc 36 aa f1 3d
       -0.09134436 0.14415297 -0.022017227 0.11800043
0000b0 7b 3b 40 be 22 77 29 be c8 98 f1 3d 27 16 11 3d
       -0.1877269 -0.16549352 0.11796719 0.035421517
0000c0 be 07 be 3c 5c 4d a5 3d b3 a3 90 3c dc c7 59 3e
       0.023197051 0.08071396 0.017656183 0.21267647
0000d0 02 5f c3 3e bb 67 77 3e eb 2f 27 3f 50 c2 01 bf
       0.38158423 0.24160664 0.6530749 -0.5068712
0000e0 fe 93 2d be 79 10 18 3b c0 ad 26 be 0b d6 9e 3d
       -0.16950986 0.0023203178 -0.16277218 0.07755669
0000f0 aa 19 aa bc 5c 34 ca 3d 49 3a b1 3e 60 97 a9 3e
       -0.02076419 0.09873268 0.3461478 0.33123302
000100 88 05 ea 3c 0a 78 7e 3d e4 36 dc 3c 40 bb dc 3d
       0.02856709 0.062126197 0.026881643 0.107779026
000110 db 73 c2 bc 30 87 1b be 80 9c f7 3d 10 a0 af bd
       -0.023736885 -0.15188289 0.12090397 -0.085754514
000120 88 5d 41 3e 8c 7a 43 3d e4 fc 13 c0 46 90 31 3d
       0.18883336 0.04772429 -2.3123102 0.04335048
000130 f9 ee a5 be 7e a4 61 3e 7b 47 8b bd f0 a1 eb bc
       -0.32408884 0.22035405 -0.06800743 -0.028763741
000140 9c da 2a 3d 46 49 a1 bd b8 0b e6 3c 37 02 0e 3f
       0.04171239 -0.07875304 0.02808176 0.5547213
000150 8d ed 79 be 3c 08 e1 bb d5 60 32 3e 2a e8 59 3e
       -0.24407025 -0.0068674367 0.17419751 0.2127997
000160 2a ef ed 3d 90 39 2d be 0d 7d 85 bd f0 52 ec 3d
       0.116178825 -0.1691649 -0.06517992 0.115392566
000170 18 36 97 3e 36 39 6b 3e e3 a6 4b bf 56 12 1e bf
       0.29533458 0.22971043 -0.79551524 -0.6174673
000180 65 be 05 3e 8c 69 6d 3e b4 e1 de be 25 c8 bd 3d
       0.13060911 0.23184794 -0.43531573 0.0926669
000190 bd 0d 8e be fc 2d d4 bd c9 f5 f4 3d b2 94 2b bd
       -0.27744856 -0.10360333 0.11960942 -0.041889854
0001a0 6f 41 7d be fb 38 e9 3d c7 d7 4f bd 8b d8 b9 bd
       -0.24731992 0.11387821 -0.05074289 -0.090745054
0001b0 51 d3 e9 bd 9e 99 17 be 7d 81 a8 3d d6 6b f7 3d
       -0.114172585 -0.14804694 0.08227823 0.12081115
0001c0 4d e9 9e bd 0e 99 89 3f 39 bb 2a bd 8d 49 b4 bd
       -0.07759342 1.0749834 -0.041682456 -0.08803091
0001d0 77 e9 51 bd 7f 38 30 be 8f 1e 45 be 85 fe 48 be
       -0.05124804 -0.17209052 -0.19249938 -0.19628341
0001e0 59 a0 0a 3d 31 ee 01 be b7 c7 b3 3e 9d cd 5f 3d
       0.033844326 -0.12688519 0.35113308 0.054639447
0001f0 00 bf 56 ba 1b 48 99 be cf e3 84 bc f7 93 af 3e
       -0.00081919134 -0.29937825 -0.016221909 0.34292576
000200 fe 3a 6e 3d 7f 64 0f bf 0a 35 cb bd e1 eb e5 3c
       0.058161728 -0.5601272 -0.09922226 0.028066577
000210 ac 6c a9 bd e8 59 fb bc f8 14 50 bc 84 8f f0 3d
       -0.08272681 -0.03068252 -0.012700312 0.117461234
000220 bb 0b 02 3f e3 67 f3 3d e5 04 44 3e df 97 31 3e
       0.5079915 0.11885049 0.19142492 0.1734309
000230 e3 ae 20 be 49 dc 4d be a5 97 9f 3d 5c ca 83 3d
       -0.15691714 -0.20103563 0.07792596 0.06435081
000240 4d 5b 52 be 00 7b 54 bb 4f f2 1e bd 56 c5 1b be
       -0.20542641 -0.0032421947 -0.038805302 -0.15211996
000250 ee cc cc 3d 0a 3f eb 3d 10 cb 85 bd a2 17 20 bd
       0.10000025 0.11486633 -0.06532872 -0.039085038
000260 f4 66 bd 3c e5 fa 0b be 4a 02 9b bd b4 92 39 3c
       0.023120381 -0.13669927 -0.07568796 0.011326481
000270 55 35 1f be e5 a6 bc 3e c6 86 35 bf 3f ed 0f 3f
       -0.15547688 0.3684608 -0.7090877 0.56221384
000280 e9 11 fc bd c3 97 c0 bd 7d 5a b2 bc 62 69 1d 3e
       -0.123081036 -0.09403946 -0.021771664 0.15372232
000290 e1 f6 50 be 5f c0 2a 3e 92 03 be bd ae 08 84 bf
       -0.20406677 0.16674946 -0.09278025 -1.0315149
0002a0 27 d2 2c 3c 4f cf 8e 3e 04 c9 c2 3d c7 9b 36 3e
       0.010548151 0.2789254 0.09510997 0.17832862
0002b0 d6 8a 13 be 94 c7 80 bc 6c 20 ee 3c 73 a6 12 be
       -0.1440843 -0.015720166 0.029068194 -0.14321308
0002c0 81 8d a0 be 51 6c ce be 44 8f c3 be 5d 50 cc 3e
       -0.3135796 -0.40317014 -0.3819524 0.39905062
0002d0 ea c2 d9 bd 75 d8 46 3e e0 c5 81 be 3a 12 78 be
       -0.1063288 0.1941851 -0.2534628 -0.24225703
0002e0 81 ab 26 3d 79 7b 84 3d d8 38 ab be f6 61 9f 3d
       0.040690903 0.06468863 -0.33441806 0.077823564
0002f0 1c 1c 83 bd 43 7d 6a 3e ba e6 6d 3e 96 6c e4 bd
       -0.06401846 0.22899346 0.23232546 -0.111535236
000300 1d fc ce be 44 bf b6 be 83 62 33 be 7e 8e 06 3e
       -0.40426722 -0.356928 -0.17518048 0.13140294
000310 a0 ea 0f 3c 5d 50 92 3e 98 2c 85 3b b0 5a 8b 3e
       0.008783966 0.28576937 0.004064154 0.27217627
000320 3a 36 19 be 8b 34 65 bd 13 bd c7 bd 20 d7 d6 bd
       -0.14962092 -0.055958312 -0.0975286 -0.104902506
000330 56 93 15 3d 54 62 d8 3e c5 bb a0 3e 6c 1c 84 3b
       0.036517464 0.42262518 0.31393257 0.0040317085
000340 3e e1 51 bd cc 75 b6 3e b7 18 82 3e 7a b3 8d bd
       -0.0512402 0.35636747 0.2540948 -0.06918998
000350 cf 9d ff bc 66 8f f9 bd ee bf c0 3e 3d ef 26 be
       -0.031203179 -0.12185554 0.3764643 -0.163022
000360 21 4c 11 3e 89 e3 d2 bd 9e 7f fb 3e 35 6f 9f bd
       0.14189197 -0.10297305 0.49120802 -0.07784883
000370 18 b8 ca 3d ae 4a 89 be 0d 55 0f bd ad ca 78 3e
       0.09898394 -0.2681479 -0.03499322 0.24296065
000380 69 07 22 3e 91 9b 5b 3d cf 3e 5e be 26 ee 84 3e
       0.15823139 0.053615157 -0.21703647 0.25962943
000390 80 0a 83 be 08 c7 00 3d d7 d5 98 be 0e 45 3f bf
       -0.25593948 0.03143981 -0.29850647 -0.74714744
0003a0 da 66 24 bf a6 a2 51 be ba bc 37 3e 30 a9 45 be
       -0.6421944 -0.20472202 0.17943087 -0.19302821
0003b0 31 ed b3 bd c5 fa 2d 3e e8 9c 10 3d 83 d3 02 3f
       -0.08785475 0.16990192 0.035305887 0.5110399
0003c0 9a 3e 1c be 7e 4d ec be ea 75 cf 3e 22 ca 03 bf
       -0.15258256 -0.46152872 0.4051965 -0.51480305
0003d0 82 41 d7 3d fd 50 3a 3e f8 d2 34 bf 0b be 79 bf
       0.105105415 0.18194957 -0.7063441 -0.9755561
0003e0 37 9f 2f bf 6d 58 28 bf b2 36 3b bd 33 eb cb 3b
       -0.6860232 -0.6575993 -0.04570646 0.0062231063
0003f0 c2 53 8a be 9f da e2 bb 4b a8 4d be 13 9e 0e 3e
       -0.27017027 -0.0069230343 -0.2008373 0.13927488

StatefulPartitionedCall/sequential/dense/MatMul_bias f4 [256]
000000 81 6b a0 bc 39 3c 4f 3b 17 dc 19 bd a1 3b 49 3d
       -0.019582512 0.003162159 -0.03756341 0.049129132
000010 87 8d d2 bc ed c2 11 3d e3 74 b8 bb e2 7d c9 38
       -0.025702251 0.035586286 -0.0056291684 9.6078744e-05
000020 bc 3d 23 3d a5 23 e2 3c 42 e3 00 bd 93 d8 94 3c
       0.039853796 0.027604887 -0.03146673 0.018169677
000030 a4 d7 12 bd 2b 0b dc bb 84 63 8a bd cf 0b ea bb
       -0.035850182 -0.0067151985 -0.06757262 -0.007142521
000040 56 0d 4d 3d 72 71 93 3c 4f 56 37 bc 62 65 1b bd
       0.050061546 0.01799843 -0.011190011 -0.037938483
000050 81 4d 58 3c 53 d9 96 3c a2 4b 94 3d e2 04 0f bd
       0.013202072 0.018414175 0.07240988 -0.034916766
000060 c6 2d 4c bc 23 56 dd 39 60 35 9f 3c 6e 6b 84 bd
       -0.012462085 0.00042216582 0.01943463 -0.06465803
000070 99 4d cb 3c db f6 f7 3d 23 f8 6b 3b e2 2e 00 3c
       0.024817275 0.12107631 0.0036006055 0.007823678
000080 e0 38 9a b7 9c fa 25 3d 77 89 0a bd 43 27 23 3c
       -1.8384715e-05 0.040522203 -0.033822503 0.009958091
000090 b8 21 71 bc 4e ff 0b bd ca c1 6e bd fb 52 0e 3d
       -0.014717512 -0.034179024 -0.05829028 0.034747105
0000a0 01 e4 4a bd 48 63 27 bd f4 7d c6 ba 7e 50 3b 3d
       -0.049533848 -0.040866166 -0.0015143738 0.04573106
0000b0 66 91 a6 bc 40 d1 b4 3b 54 ac a1 bc 4f bb 17 bc
       -0.020333003 0.0055181086 -0.019735493 -0.009260966
0000c0 19 4b 75 bc b9 9e 1e bd 23 bf 51 3d 38 97 3e 3d
       -0.014971518 -0.03872559 0.051207673 0.046530932
0000d0 cb f5 d2 3c e3 38 c0 bc ed 47 25 bd 0e 4a 10 bc
       0.025751969 -0.023464626 -0.040351797 -0.0088067185
0000e0 ed 4a 18 3d 28 41 ae 3c ed d5 a0 bd 95 4f 48 3c
       0.03718083 0.021271303 -0.07853303 0.012226005
0000f0 e1 dd 75 bd ba 81 59 3d 14 07 2a bd b0 19 a2 bc
       -0.060026053 0.053102233 -0.041510656 -0.01978764
000100 f1 1c 6b 3c 4d 08 d1 3c 9e 04 3c bd 08 7c d2 bd
       0.014350162 0.025516653 -0.04590284 -0.10277563
000110 14 1e 2d bd f1 93 54 3d b9 72 2c bb 58 03 80 3c
       -0.042265013 0.0518989 -0.0026313497 0.015626594
000120 ed c2 df 3c 85 15 8a bc d8 bd 16 bd a9 c5 1c bc
       0.027314628 -0.016855964 -0.036802143 -0.00956861
000130 1d 5c 42 bd 6a 22 b0 3b 45 e6 a9 3c bf 46 8d bb
       -0.047451127 0.005375196 0.020739684 -0.004311412
000140 d0 0b 4d 3c 2c 6c 76 3d 18 26 44 bc 2d 5f 82 bd
       0.012515023 0.060161754 -0.011971973 -0.063658096
000150 7b ed 08 3d e6 42 ff bc f1 fe 9a ba da cf 07 bd
       0.033429604 -0.03115983 -0.0011825246 -0.033157207
000160 d5 76 5a 3c 21 0e 49 3d 09 6d c0 bb 87 e3 82 bc
       0.013333996 0.04908574 -0.005872373 -0.015977634
000170 cb a2 46 3d 84 f5 dc bc 38 97 52 3d 9d 62 35 3b
       0.048495095 -0.02697254 0.051413745 0.0027677186
000180 e1 ad 45 bc b3 83 f7 3c 8a 7b b9 bd c5 b0 cd bb
       -0.012065382 0.030214166 -0.09056766 -0.006277176
000190 d5 29 24 bd 3f 4a ba 3b a3 4a c9 bc ef da 3d bd
       -0.040078957 0.0056851204 -0.024571722 -0.04635137
0001a0 1a 76 9b 3c cd ed b5 bc 3d 5c 70 3d 14 75 58 bc
       0.018977214 -0.022208119 0.058681715 -0.013211507
0001b0 d3 18 94 3c 69 87 15 3d 22 99 8c 3c 50 81 67 3c
       0.018078243 0.03650609 0.017162863 0.014129952
0001c0 18 5f 92 bc c4 06 b4 bc 94 f3 78 3d 69 c6 70 3c
       -0.01786761 -0.021975882 0.06077917 0.014695742
0001d0 df b9 ff 3b 48 ea 84 bc ce 2f 27 bd 50 bf 45 3c
       0.00780414 -0.016224995 -0.040817074 0.012069538
0001e0 9a a2 50 bc 20 03 97 bc ba d6 e7 bc f5 cf f4 bc
       -0.01273408 -0.018434107 -0.028300632 -0.029884318
0001f0 0f 56 1f 3d 03 82 fb bb cd a4 15 3d f6 56 1f 3c
       0.03890043 -0.0076754107 0.03653412 0.009725323
000200 c7 32 ac bc 4b 77 3d 3c d6 0f 82 bd cc 52 95 bc
       -0.021020306 0.011564086 -0.06350677 -0.018227957
000210 ef 5a e8 bc 05 ae 1d bd 8b 7a 8e bb dd a5 08 bc
       -0.028363673 -0.038496036 -0.0043481044 -0.008340326
000220 e7 0b 46 bd a3 34 8a bc b8 30 3a 3c f4 36 c7 3c
       -0.048351195 -0.016870802 0.0113641545 0.024318196
000230 13 f8 3a 3d 1e c7 24 3b ea a0 13 bb 51 5c 8b 3a
       0.04564674 0.0025143097 -0.0022526332 0.0010632371
000240 6c 48 02 bc 80 1a c4 bc 21 80 90 bb 90 19 57 bb
       -0.007951837 -0.023938417 -0.0044098054 -0.0032821633
000250 0c d7 22 bd bd b9 4a bc 25 13 dd 3c 92 a2 aa bc
       -0.039755866 -0.012373385 0.026986668 -0.020829473
000260 9c 53 07 3c 74 d0 d7 bd 43 0a d7 bc c5 0f 0d bc
       0.00825968 -0.10537806 -0.02625001 -0.008609717
000270 09 07 d4 3c ef 47 8e bc 7f 2a 85 3d 30 58 13 3c
       0.02588226 -0.017368285 0.06502246 0.0089931935
000280 d2 ec 31 3d 71 74 4d bd 3f 3b 9f 3c f9 32 53 bd
       0.04343874 -0.050159875 0.01943743 -0.051562283
000290 0a b7 95 3c cc 87 b8 bb 69 e0 06 bd c2 4f aa bd
       0.018275756 -0.0056314226 -0.032928858 -0.08315994
0002a0 49 b9 b5 3a e8 9c a3 bd 44 1b 8c bb 37 6d b0 bc
       0.0013864423 -0.07988912 -0.0042757113 -0.021536453
0002b0 b9 fd b2 bc 29 e5 8b 3b c9 94 5d bc 17 fe 7e 3c
       -0.0218495 0.0042692614 -0.013524243 0.015563509
0002c0 a6 e4 82 3c 54 f7 7b 3b 8e bf 01 3d 93 c5 11 bc
       0.015978169 0.003844698 0.03167682 -0.008897203
0002d0 bc d4 e2 bb 46 6a 52 3c cd 26 18 bb ff f4 44 3d
       -0.0069223326 0.01284272 -0.0023216486 0.04808521
0002e0 c3 5d 62 bd 0a 3a 89 3c 00 00 00 00 cd 68 a5 bc
       -0.0552652 0.016751308 0.0 -0.020191574
0002f0 a5 6b 8e 3a 4e 4c 3a bd 4c d5 30 bd 15 8d 50 bd
       0.0010865821 -0.045482926 -0.043172166 -0.050915796
000300 71 98 1b ba 82 ce 57 3b f9 29 72 bb d3 25 05 3d
       -0.00059354963 0.0032929485 -0.0036951287 0.032506775
000310 79 4a c6 3c 1d f7 00 3c df b7 c5 3c 52 8e 44 3b
       0.024205433 0.007871416 0.024135528 0.0029992056
000320 8b 03 bc bc d4 02 f9 3c 33 d0 28 bd 9b 97 2b bc
       -0.022950908 0.030396856 -0.04121418 -0.010473157
000330 b8 eb a6 3c e5 f0 83 bc 58 ca a7 bc 8e 80 c8 b9
       0.020376071 -0.016106078 -0.020482227 -0.00038242753
000340 ff 42 af 3c 37 80 8e 3a 9d 27 92 bd cd 3e 24 bd
       0.02139425 0.0010871951 -0.07136462 -0.040098954
000350 d2 8f 1f bc f8 77 df 3c 98 6d 99 ba b4 9a 10 3d
       -0.009738879 0.027278885 -0.0011705635 0.035303786
000360 e4 49 61 bb 98 05 cf bb 2d 46 46 bb e8 a5 5c 3c
       -0.0034376318 -0.0063178055 -0.003025423 0.0134672895
000370 41 69 9a 3c 69 ed 94 3c 75 ac 5c bc f2 82 b0 bb
       0.018849017 0.018179612 -0.013468851 -0.0053867036
000380 06 92 d0 3c a5 05 3e 3b f7 3b 0a 3b 28 d5 95 bd
       0.025460254 0.0028995064 0.002109287 -0.07316047
000390 a5 f9 0b 3d 0b 5d a5 3b 0e 2e 9f bc 17 43 87 bc
       0.034173626 0.005046492 -0.01943114 -0.016511483
0003a0 cd 2b fd 3c 50 f5 9d bb cb 41 1c 3c db e1 13 3c
       0.030904675 -0.0048205033 0.009537171 0.009026016
0003b0 db 70 24 bd 28 3a a0 3d b5 cf e5 3c a0 cc 83 3d
       -0.04014669 0.078235924 0.028053144 0.064355135
0003c0 e5 c5 29 bd 0f c0 74 3d 7d fe 62 bc 30 d7 b9 3b
       -0.041448493 0.059753474 -0.01385462 0.0056714043
0003d0 c3 21 56 bd 80 13 dc 3c 20 18 b5 3c cd 89 56 3b
       -0.05227829 0.026864767 0.02210623 0.0032735944
0003e0 71 b5 39 3c bf bb 59 bc ae ad 00 3d dd a9 aa 39
       0.011334763 -0.013289391 0.031415634 0.00032551485
0003f0 bc 32 88 bd 1e be c6 bc 6b 42 02 bc fb 87 69 3c
       -0.06650302 -0.024260577 -0.007950406 0.014253612

StatefulPartitionedCall/sequential/dense_1/MatMul/ReadVariableOp/transpose f4 [128, 256]
000000 64 62 bf 3b d2 26 27 3e 65 d9 d1 3d d6 ce 3f be
       0.0058405865 0.16323403 0.10246543 -0.18731245
000010 28 bd 89 be e5 b2 bd 3d 56 59 60 3d db 25 99 be
       -0.26902127 0.09262637 0.054772697 -0.29911694
000020 8c cd aa be f4 28 31 3e 3b 2a d1 3e b9 df f1 be
       -0.33359945 0.17300779 0.40852532 -0.47241
000030 f6 e5 5c bd 0f 10 4e 3b d9 b1 a1 3d 20 fb 36 3e
       -0.053930245 0.0031442677 0.0789525 0.17869234
000040 6d 96 14 bd f8 78 14 be ac 9b 46 bd ee 8c 0b bd
       -0.03627627 -0.14499271 -0.048488304 -0.034069948
000050 5e 38 06 3e e8 6e e1 be 34 c1 b3 3d 33 a7 a7 3a
       0.1310744 -0.44029927 0.08777085 0.0012790918
000060 ed fb 9e bd 75 4e 1c be a6 cc 2f 3e 4a bc 87 be
       -0.07762895 -0.15264304 0.17167911 -0.2651084
000070 df e4 45 3d 20 77 0d 3e f5 01 8b bd a4 ac 13 be
       0.04831397 0.13814974 -0.06787483 -0.14421326
000080 77 99 a3 3e 2f 40 86 3e 7c ed f9 3c bd f0 0c bd
       0.31953022 0.26220843 0.03050875 -0.034409273
000090 f0 39 85 bd de ec 84 bd e8 3f 70 3d a0 34 79 3d
       -0.06505191 -0.06490491 0.058654696 0.060841203
0000a0 c7 dc 0c 3e 8d 68 f8 3d 6f 82 b3 3d 6c 1f d8 be
       0.13756095 0.121293165 0.087651126 -0.42211473
0000b0 eb e9 23 3e 3e bb 2f be 9d a2 a1 bd 50 90 1e be
       0.16007201 -0.17161271 -0.07892344 -0.15484738
0000c0 b8 5a 1f 3e 40 6b a2 be ae 71 cb 3e 58 9b 3f be
       0.1556195 -0.3172245 0.39735168 -0.18711603
0000d0 9e ab c5 3d 44 b4 08 3e db eb b8 bd ae 21 87 bd
       0.09651874 0.13350016 -0.09029361 -0.06598221
0000e0 e3 d7 92 bd b5 56 a0 3e 88 44 02 bd da 95 f1 bd
       -0.071700834 0.31316152 -0.031803638 -0.1179616
0000f0 e0 16 ef 3c 73 e5 cd 3d 35 2b 78 bd eb dd da 3d
       0.029185712 0.100535296 -0.06058808 0.10686859
000100 b4 49 8f 3d 87 f9 91 bd 09 32 d2 bd a7 2b 10 3d
       0.0699648 -0.07127672 -0.1026345 0.03519788
000110 d9 3d eb be 64 13 c0 bc 74 c5 b7 bd 62 f9 d0 be
       -0.45945624 -0.023446746 -0.08973208 -0.40815264
000120 b6 8f 8e 3e 2c d5 4d 3d 1a 8b 53 bd 8d 9f 73 be
       0.27844018 0.050252125 -0.05164633 -0.23791333
000130 3e 87 57 3e 19 48 d4 bd cc 1a 7f bd fd 60 45 3d
       0.21047685 -0.10365314 -0.062281415 0.0481882
000140 1d bc b8 be fc c4 09 be 2c 9c 83 3e ce 63 e4 3e
       -0.3608102 -0.1345405 0.25705087 0.44607395
000150 65 68 15 be 74 1f f9 3d 72 1c 0d be b4 42 d5 3d
       -0.14590605 0.12164202 -0.13780382 0.10413113
000160 59 86 42 bc 24 f8 e7 bd a6 42 9e 3d 81 0a 3a be
       -0.011872851 -0.11326626 0.07727556 -0.1816807
000170 09 c9 9e bc 0e c8 e2 3d 9f cd 32 3e 43 03 cc bd
       -0.01938297 0.11073314 0.1746125 -0.099615596
000180 cf 8d a3 3e 2d 63 52 be 22 93 aa bd bf 9a f9 3e
       0.3194413 -0.20545645 -0.083288446 0.48750874
000190 38 08 0f 3d 18 8e 1a 3e f5 8a 3f 3e 28 c7 9d 3c
       0.034919947 0.15093267 0.18705352 0.019260004
0001a0 03 e8 b9 3c 85 ce 98 3d 94 89 6f 3c af 26 0a bd
       0.02269364 0.074612655 0.0146202035 -0.033728298
0001b0 c5 18 2c 3e 8a aa 03 3e 37 dc 84 be 2b 1d 3d 3e
       0.16806324 0.12858024 -0.2594926 0.18468158
0001c0 bd 46 f3 3d cd d9 4d 3e 92 cf 26 3d 1b 69 76 be
       0.11878727 0.20102616 0.0407253 -0.24063532
0001d0 ed 54 ac 3d 99 11 e6 3d 8c 69 ea 3d 7a b5 b5 3d
       0.08414636 0.11233825 0.11445913 0.088725045
0001e0 ea 1e 64 bd 0a 78 71 bc 2f 4a 58 3e 0f 04 5f be
       -0.055693544 -0.014738092 0.21122049 -0.21778892
0001f0 7c f8 d1 bc bd cf e8 3d 2f 7c 86 3c c6 70 1e 3c
       -0.025631182 0.11367748 0.016416637 0.009670442
000200 0f 91 ee bb cf 2f 3c bd f8 0b d4 bc 32 cf 91 3d
       -0.007280476 -0.04594403 -0.025884613 0.071195975
000210 78 12 ef 3d f6 b1 a0 3d 25 d6 17 3c a0 cf d3 3d
       0.116734445 0.07846443 0.009267365 0.10342336
000220 c3 b0 6b 3d c5 d4 83 bd d1 1f fb bd 12 e1 91 3e
       0.05754162 -0.06437067 -0.12261928 0.28492028
000230 a1 eb aa 3d d0 14 23 3e 77 91 41 be b2 85 57 bd
       0.08345724 0.15925908 -0.18903147 -0.052617736
000240 16 8e ce bd 54 f8 b8 3d 69 98 a3 3d 5f 4c 0f 3e
       -0.100856945 0.0903174 0.07988054 0.13993977
000250 81 67 72 3d 80 87 47 3e cb a4 fd 3d 8f f0 ec 3d
       0.05918074 0.19485283 0.123849474 0.115693204
000260 f0 6b 70 3c d6 3c f0 3d d7 21 50 3d 62 4c 63 3d
       0.014674172 0.117303535 0.050813522 0.055492766
000270 2f ee 16 bd a6 aa df bd 7f 8d 1a bc bc 75 4d be
       -0.036848243 -0.109212205 -0.009433149 -0.20064443
000280 ad 7f a9 bb e3 90 9c bd ba 6b 84 bd 5e 20 0b bd
       -0.005172691 -0.076448224 -0.0646586 -0.033966415
000290 01 7b d3 3d e9 bf ec 3d 37 6b 3f bd 0a 45 e3 bd
       0.103261955 0.115600415 -0.046733107 -0.110971525
0002a0 45 24 10 3d d5 73 c5 bd 7f 47 c1 bc 8e 29 91 3c
       0.03519084 -0.09641234 -0.023593662 0.01772001
0002b0 bb 55 04 3d ce eb 82 bd 0d 28 a6 bb a8 43 08 be
       0.03230832 -0.063926324 -0.0050706924 -0.13307059
0002c0 89 ad c1 bd fa 30 41 3d ac a5 4f 3e e8 d1 40 3b
       -0.09456927 0.04716585 0.20278043 0.002942199
0002d0 61 09 15 bc 89 de d1 3e 28 1a 8c be 73 4b 15 be
       -0.009096474 0.40990093 -0.27363706 -0.14579563
0002e0 e8 99 c6 3c 3c a0 16 bf f0 c9 b8 bc e1 ba 03 3e
       0.02424331 -0.5883825 -0.022557229 0.12864257
0002f0 f3 ef a8 3d 7f 06 48 3c ef c2 ca 3d 0c a1 b2 3c
       0.08248892 0.01220858 0.09900462 0.021805309
000300 a0 e6 32 be df ae ee 3d a7 46 27 be d3 41 61 be
       -0.17470789 0.11654448 -0.16335545 -0.21997766
000310 8b d6 fa 3d c8 60 27 3d 92 49 7c 3d 46 c3 f6 bb
       0.12247952 0.040863782 0.0615936 -0.0075306026
000320 95 8d 9d 3d 38 84 18 3e 27 1f 88 be d6 d2 84 3d
       0.0769302 0.14894187 -0.26586267 0.06485526
000330 e2 cf f4 3d 60 2d 4b 3c a6 83 e9 3c 7b 79 23 3e
       0.11953713 0.012400955 0.028505158 0.1596431
000340 d6 b0 8d be 03 c3 75 3d 6f 3e 90 be a6 a8 14 be
       -0.27673978 0.06000043 -0.28172633 -0.1451746
000350 e7 65 65 3e ac 06 57 3e c3 67 8b 3d 3a a8 a9 3e
       0.22402154 0.20998639 0.068069 0.3313616
000360 93 b6 1e bd 03 24 0e 3e 56 e2 d4 bd 77 7e 8a 3c
       -0.038748335 0.13880925 -0.10394733 0.016906006
000370 b4 c3 4d bd b9 a3 40 3d 9a e4 7d bd fc 79 4f be
       -0.050235465 0.047031138 -0.06198559 -0.20261377
000380 88 81 60 3e c0 bd 15 be ad 66 c3 bd ad 3a 94 bd
       0.21924412 -0.14623165 -0.09541068 -0.07237754
000390 1f 0e e1 bd 11 47 4c bd 98 92 38 bb 91 2f 79 3d
       -0.109890215 -0.04987246 -0.0028163549 0.06083638
0003a0 a7 f4 ea be b0 00 e1 3c f4 14 55 be 27 00 4c bd
       -0.4588978 0.027466148 -0.20808774 -0.049804833
0003b0 e0 14 1f bb e0 30 37 3e 4c f5 85 be 58 48 8f 3e
       -0.0024273917 0.17889738 -0.2616371 0.2798488
0003c0 f6 7b 22 3e b7 72 81 bc 3f e0 4b be e2 c0 3a 39
       0.158676 -0.01580177 -0.19909762 0.00017810197
0003d0 cc ed 21 bd 9d 80 c0 3d 2b 28 ba be 31 42 b3 3d
       -0.03953342 0.09399531 -0.3635877 0.087528594
0003e0 69 16 0f be 98 7e 0f 3e 9e 63 fd 3d 3b 0e c9 3a
       -0.13973393 0.14013135 0.12372516 0.0015339324
0003f0 3d fd fb 3b c4 80 75 bd 6a ed 47 bc b6 d4 df 3d
       0.0076901005 -0.059937254 -0.0122026 0.10929243

StatefulPartitionedCall/sequential/dense_1/MatMul_bias f4 [128]
000000 fd 81 39 3d e4 d4 3a bd 34 c7 aa 3d 19 4e 15 3d
       0.045289982 -0.045613185 0.08338776 0.036451433
000010 5c 9f 7e bc c2 17 ba 3c 79 3b 8c 3d da 90 86 3d
       -0.015540924 0.022716407 0.06847281 0.06570597
000020 d4 bc 9b bc 7e 0a 06 3d 0f 0c af 3c 62 72 c0 3a
       -0.019010939 0.03272485 0.021368055 0.0014682526
000030 30 18 5e 3c 76 97 87 3d 36 00 06 3d f8 0a 14 3d
       0.013555571 0.06620686 0.032715045 0.036143273
000040 2a 29 9b 3c 6b a5 6d bd b3 32 2e 3d ce f3 1c 3d
       0.018940527 -0.058019083 0.04252882 0.038318448
000050 67 f8 90 3d d3 b0 00 bd 8f 8d cb bd b6 60 d1 3b
       0.07078629 -0.031418633 -0.099391095 0.0063897027
000060 4d f4 a4 3a c6 6b 58 3d a3 b9 30 3d 40 87 36 3d
       0.0012585014 0.052837156 0.043145787 0.04456258
000070 19 15 23 3d b4 f1 0c 3c 26 c2 9e 3d 35 35 ec 3c
       0.039815042 0.008602548 0.077518746 0.028833965
000080 7c b7 83 3c 43 ba 1b 3d 70 01 b7 3c 47 35 10 3d
       0.016078703 0.03801943 0.022339553 0.03520706
000090 6c 6c da bc d5 5d 5d bd 75 8f 29 3d 57 0a c9 3c
       -0.026663028 -0.054044563 0.041396577 0.024541063
0000a0 57 dd 80 3d ab 4c 87 bc dc 93 28 3d 71 ec d9 3c
       0.06292217 -0.01651605 0.041156635 0.026602002
0000b0 5a e5 a0 3d 6e 3e 72 3c d8 d4 3f 3b f7 cf 00 bc
       0.07856245 0.014785392 0.0029271152 -0.007862083
0000c0 dc 0c 4a 3d f2 56 22 3a 4f 3c 20 3d 3f 34 8a 3b
       0.04932867 0.00061927654 0.039120015 0.004217654
0000d0 bf 46 6c bc f1 57 7b 3c 6a 4e 27 3d 9f a4 c7 3c
       -0.014421164 0.015340791 0.040846266 0.02437049
0000e0 20 45 78 3c a8 b0 e9 3d c2 8c 36 3d c7 56 e7 3c
       0.015153199 0.11410648 0.04456783 0.02823962
0000f0 e2 28 67 3d b2 06 a0 3c ff 41 c1 3c e7 99 59 3d
       0.056435473 0.019534443 0.02359104 0.05312529
000100 ef 5e e0 3b 7c a8 b3 3b e0 20 17 bd 4b 4d f8 3c
       0.0068472545 0.0054827314 -0.036896586 0.030310294
000110 6b 16 c6 bc 51 34 d5 bc 5b 30 99 3c 20 33 0e 3d
       -0.024180612 -0.026025923 0.018699815 0.034716725
000120 60 9c 1a 3c 12 f2 2b bb c2 f3 3d 3c dd 41 94 bc
       0.009436697 -0.0026236814 0.011593761 -0.018097812
000130 78 d8 da 3c 28 7e 51 3d 3b eb 4b 3d 32 03 8d 3d
       0.026714548 0.051145703 0.04978488 0.06885375
000140 1a 77 56 3d fc 5b b9 bc e0 b9 38 bd 45 ca 32 3d
       0.052359678 -0.02262687 -0.04509914 0.04364993
000150 94 0f 8d bd 46 0b fe bd 58 58 b5 3d 1a e3 08 3c
       -0.06887737 -0.12404494 0.08854741 0.0083549265
000160 f9 94 bd 3c 5c 46 7a 3c 84 4e 8c 3c d0 88 41 bd
       0.023142325 0.015275564 0.017127283 -0.047249615
000170 b1 e0 9b bc bb e7 70 3c 71 71 a7 3c b7 ba 43 3d
       -0.01902804 0.014703686 0.020439835 0.047785487
000180 65 47 1d 3d 89 d1 30 3d 05 bf 0a 3d f0 2a b5 bd
       0.038398165 0.04316858 0.033873577 -0.0884608
000190 e5 97 0e bd f5 9b 03 3d 29 4d 89 bc c5 95 14 3d
       -0.034812827 0.032131154 -0.016760426 0.036275644
0001a0 4a b5 ea bc 96 05 c5 3c 11 a4 10 3d c9 e2 69 3c
       -0.028650898 0.024050515 0.035312716 0.014275261
0001b0 d2 a2 f8 3a 58 d4 05 3d 07 9b 11 3d 4c 92 ba bc
       0.0018969423 0.03267321 0.035548236 -0.022774838
0001c0 8c be cb 3a 6d 95 0b 3d f0 2f 0c bd e5 78 7b 3c
       0.0015544458 0.03407805 -0.034225404 0.015348648
0001d0 df 8c 3c 3d 1f bd 51 3d c4 57 92 bd 0a 0c e6 bc
       0.046032783 0.05120575 -0.07145646 -0.028081913
0001e0 71 0f 8b 3d 42 6f 37 3d 47 f8 ff 3c 88 37 10 3d
       0.067900546 0.044783838 0.031246318 0.03520921
0001f0 81 ba 64 bd 99 1b 4b 3d 69 80 9a bc 7f 6d e1 3c
       -0.055841926 0.049586866 -0.018860059 0.027518032

StatefulPartitionedCall/sequential/dense_2/MatMul/ReadVariableOp/transpose f4 [64, 128]
000000 c7 e1 61 be 99 39 d9 be c4 2e fa 3d 66 5f 72 3e
       -0.22058783 -0.42426756 0.12215951 0.23669204
000010 2b 1c 15 3c d1 10 6b 3e 49 d1 29 be 3c ab 44 be
       0.009100954 0.22955634 -0.16583742 -0.19205946
000020 cd ff 48 bc ff 8c 71 3e f0 74 8d bc 59 ae 4a 3e
       -0.012268019 0.23588942 -0.017267674 0.19793071
000030 b2 c0 b1 bd 8d 84 77 3c 67 f8 35 3e d7 d5 de be
       -0.08679332 0.015107286 0.17770539 -0.43522522
000040 80 c8 a6 3e 0d 0d 93 bc 60 46 1b 3e ef d4 a0 3e
       0.32574844 -0.017950559 0.15163565 0.31412455
000050 91 0f 80 3e 93 6e ed bc 97 54 aa bd ce 5d e0 3d
       0.25011876 -0.02898339 -0.083169155 0.10955392
000060 9a b1 2e 3e e6 d0 1c bf ef 54 24 3e b8 00 32 be
       0.17059937 -0.61256254 0.16048025 -0.17383087
000070 a3 1d 0f 3e d2 1a 12 3e 40 76 54 be d3 0c eb 3d
       0.1397615 0.14268044 -0.20748234 0.114770554
000080 cb b2 61 be 03 2a e5 3d 70 c5 26 be 4e 85 b8 3d
       -0.2204086 0.11189654 -0.16286254 0.09009801
000090 f5 f6 7d 3e 73 bb a7 bc 4a 23 eb 3d 70 40 e4 bb
       0.24801238 -0.020475125 0.1148134 -0.0069656894
0000a0 91 90 ce 3d da 50 0f 3e 13 90 7d be 4b 4c 00 3d
       0.100861676 0.13995686 -0.24761991 0.03132276
0000b0 77 08 98 3d 87 0a 4e be 7c f3 90 3e fc b3 03 bd
       0.074234895 -0.20121203 0.28310764 -0.03215407
0000c0 d3 d3 76 bd ba 60 5f 3d d5 25 12 3e 7e c8 87 bd
       -0.060260605 0.054535605 0.14272244 -0.06630038
0000d0 42 05 b7 bd 20 12 95 be 92 39 04 bd c9 04 32 bd
       -0.0893655 -0.2911539 -0.032281466 -0.043461595
0000e0 65 65 26 bd f6 dd 34 bd 59 a3 e9 3d a6 cb ef 3d
       -0.04062404 -0.04415699 0.11408109 0.11708765
0000f0 55 61 1f 3e 78 b8 8f 3d 7e 7c 92 3e fd 46 99 3d
       0.15564473 0.070176065 0.28610605 0.07484243
000100 33 32 d7 bd 86 ae fa 3d d7 3c d0 3e 95 3e f5 bd
       -0.105076216 0.12240319 0.40671417 -0.11974827
000110 c3 dc 3d 3f b6 49 38 be c8 35 3d 3e 16 b2 84 bd
       0.7416498 -0.17996868 0.18477547 -0.0647928
000120 cb 7b 61 3e a4 f9 df 3d 8a 3c 75 3e b7 d7 c9 3d
       0.2201988 0.10936287 0.23948875 0.098555975
000130 7d 70 cf 3e 7a 31 3b be 4a 89 0c 3d b1 98 2b bc
       0.4051551 -0.18280593 0.034310617 -0.010473416
000140 27 4b fa bc 79 9c 1c 3d 4a 05 15 be 36 d5 3b be
       -0.030553414 0.03823516 -0.14552799 -0.18343052
000150 29 c0 2c bd 9f ac 5f be af 97 e0 be b3 f4 0c 3f
       -0.042175446 -0.21843193 -0.43865725 0.5506088
000160 f0 e4 86 3e 68 55 31 be 5c e3 2f 3d fb 72 1f be
       0.2634654 -0.17317736 0.042941436 -0.15571205
000170 bf 13 f2 bd c7 8b 0e 3e 51 aa 8b 3e b4 42 88 3e
       -0.118201725 0.13920508 0.2727838 0.2661339
000180 59 ae d5 be ce 95 7c bb 85 b1 cf be 01 de 6f bc
       -0.4173458 -0.003854144 -0.40565124 -0.014640332
000190 90 dd 0d be c5 40 54 3d a0 3f d0 3d 8e c3 db 3d
       -0.1385405 0.05181958 0.101683855 0.107306585
0001a0 7a b0 2c 3e 91 44 94 3c 62 4f ff be ab e9 11 3d
       0.16864195 0.018099101 -0.49865252 0.035623234
0001b0 8e a5 0b 3e aa 12 34 be 83 b5 2d 3e 6a cb f5 3d
       0.13637373 -0.17585245 0.16963772 0.12001689
0001c0 ea cf 7b bc bd ff 00 3e 9e 4b 13 be 7d 24 c7 3d
       -0.015369395 0.12597556 -0.14384314 0.097237565
0001d0 e5 84 88 be 21 c0 07 3e 75 3a 3f 3f ab ff 25 bc
       -0.2666389 0.13256885 0.74698573 -0.010131757
0001e0 34 b5 b3 bc cc ba 94 be fa cb 18 3c aa 68 8d 3e
       -0.02193699 -0.29048765 0.009325976 0.27618915
0001f0 80 f9 12 3e 8d ed 11 bd a3 30 47 be 9e 6d 0d 3e
       0.14352989 -0.035626937 -0.19452147 0.13811347
000200 85 2e 4a ba a5 f7 21 be a5 93 72 bd 4d c7 48 be
       -0.00077126204 -0.15817125 -0.059222836 -0.19607277
000210 1a c9 14 3e 1e f3 2f be bd dd 3e bd f6 27 6b 3e
       0.14529839 -0.17182586 -0.046598185 0.22964463
000220 22 a9 b4 3d 30 b3 9e be 38 1b 23 3e 62 11 bb be
       0.08821322 -0.30996084 0.15928352 -0.365367
000230 60 f1 8d bd 7c 5c 6c 3e 81 02 ef bd fa d8 02 be
       -0.06930804 0.23082155 -0.116703995 -0.12778082
000240 d2 31 94 3b c7 05 87 be 92 fb 36 bd 44 26 80 3c
       0.0045225406 -0.26371595 -0.04467351 0.015643246
000250 77 73 fc 3c e0 d0 ef bd c4 21 12 3e a9 32 84 3e
       0.030816777 -0.117097616 0.14270693 0.258199
000260 94 4a f7 be e9 48 04 3e 47 c8 e2 bd ed 27 0a bd
       -0.48299086 0.12918438 -0.11073356 -0.033729482
000270 9d fd 16 3e f7 34 ca 3e ac 13 6e bd 01 26 27 3e
       0.14745183 0.39493534 -0.05812423 0.16323091
000280 ff d3 48 3e 82 e4 cb bd 1c b0 4a bc a6 97 7c bc
       0.1961212 -0.09955694 -0.012371089 -0.015417015
000290 dc dd fa 3e 23 ea fa 3d 6a 88 5e bd b2 28 ce bd
       0.4899739 0.12251689 -0.054329313 -0.10066356
0002a0 c8 e4 1f 3d 80 45 f9 ba ad 7f c0 be 66 b2 c2 bd
       0.039036542 -0.0019017905 -0.3759741 -0.09506683
0002b0 ce c1 17 be 9d 75 2f 3d 06 dd 7e ba d5 d0 37 ba
       -0.14820024 0.042836774 -0.0009722266 -0.00070120144
0002c0 e5 66 40 3e 5b 33 92 3e 4e a6 60 3e ed 13 92 3e
       0.18789251 0.28554806 0.2193844 0.28530827
0002d0 4d 14 a2 3d 5b e6 b7 3b a8 d1 ce 3d a1 ec aa 3d
       0.07914028 0.0056121773 0.100985825 0.08345915
0002e0 e1 be 90 3d bb 4f e5 bd 8e 12 54 bf b6 f7 31 3e
       0.07067657 -0.11196848 -0.8284081 0.1737965
0002f0 c7 4b 7f 3e 82 6b 31 3d fc 00 96 be bd 8c 96 3d
       0.2493125 0.043315418 -0.29297626 0.073510624
000300 12 95 f5 3d 37 2f c0 be b0 85 46 be d0 ce 35 3c
       0.119913235 -0.37536022 -0.19386935 0.011096671
000310 ba 45 a8 be 7d 97 06 3e 6a fe a4 be 54 95 fc 3b
       -0.32865697 0.13143726 -0.32225353 0.007708231
000320 5b 61 db 3e f5 e8 c7 3e 8d 1d e9 bd 10 61 15 3e
       0.42847714 0.3904492 -0.113825895 0.14587808
000330 0a ae 9b 3e b1 b9 3a bc 09 d3 ed 3d 15 35 96 bf
       0.3040622 -0.011396811 0.116125174 -1.1734949
000340 d8 7e 80 be 9f 92 98 3d 62 96 60 3c aa 53 09 bb
       -0.25096774 0.07449841 0.013707729 -0.0020954409
000350 5e f5 f2 3d 28 22 32 bd 8c df 64 3e d5 81 54 3f
       0.11863206 -0.043489605 0.22350901 0.8301061
000360 c2 b5 6a bf 79 b0 bc bd 29 3b 10 bf 03 bf a8 3b
       -0.9168359 -0.09213347 -0.5634027 0.0051497235
000370 ee ee ae 3d 33 e9 90 be f3 2e 0f bf 8a aa f9 3c
       0.08541666 -0.28302917 -0.55931014 0.030476827
000380 c3 26 82 bd f4 a7 6e bb 8e fd 73 3e d2 be 66 bf
       -0.063550495 -0.0036416026 0.23827192 -0.9013492
000390 ad 19 33 bd 8d c3 70 bf c2 46 51 3e a7 b8 58 bd
       -0.04372566 -0.94048387 0.20437148 -0.052910473
0003a0 25 07 27 be 21 59 d0 3d 36 8d df bb bf 98 55 3e
       -0.16311319 0.1017325 -0.0068222536 0.2085905
0003b0 09 3e 49 3e fa a8 28 3e de 38 7c 3d b5 40 2e bd
       0.19652571 0.1647071 0.06157767 -0.04254218
0003c0 bf 31 a1 be 69 33 4a 3e 4a 6c c2 3c c2 d7 36 be
       -0.31483266 0.19746174 0.023733277 -0.17855743
0003d0 fd db da 3d 09 77 36 bd ba d9 08 bf 32 8b 21 be
       0.10686491 -0.044547115 -0.53457224 -0.15775755
0003e0 c6 a7 44 be a5 cc b2 3d ad 4f e6 bd 2b 5c 8b 3e
       -0.19204625 0.08730439 -0.11245666 0.27218756
0003f0 9e 18 eb 3d ac ab 63 3e 7b ef 00 3e 25 b2 e4 bd
       0.11479305 0.22233456 0.12591355 -0.11166791

StatefulPartitionedCall/sequential/dense_2/MatMul_bias f4 [64]
000000 14 88 a1 3c ac 0e 1e 3c 63 e6 66 3c 65 13 0d bd
       0.019718207 0.009647053 0.014093014 -0.034442324
000010 46 25 0f 3d 69 93 78 bd 12 cb 79 3d 3c da f2 3c
       0.034947656 -0.060687456 0.06098468 0.029645078
000020 00 00 00 00 00 b3 27 3d eb d6 b6 3d a7 ce 42 bd
       0.0 0.040942192 0.08927711 -0.04756036
000030 0b 47 33 bd f0 d4 bd 3d 1e 19 89 3d 81 84 a2 3d
       -0.043768924 0.0926913 0.06694244 0.07935429
000040 a5 c8 c1 3b 97 3a af 3d 9c a0 f1 3c 2e 71 80 3d
       0.0059138113 0.08556097 0.02949553 0.06271587
000050 ca 3a ae bd 87 51 a9 bc c0 1e e7 3c c3 3f 5d 3d
       -0.08507307 -0.020668758 0.028212905 0.054015886
000060 66 28 4b bc 2c ee 16 be 9c 91 cd bc 74 46 69 3a
       -0.012399768 -0.14739293 -0.025093846 0.0008898743
000070 09 f2 01 bd 84 b3 e5 3c 99 b3 00 3d 53 eb 09 3c
       -0.031724963 0.028039701 0.031421278 0.008417922
000080 6a 4c 26 bd 91 04 5f 3d d9 cc 23 bd eb 34 38 3c
       -0.040600218 0.054447714 -0.03999028 0.011243085
000090 74 22 93 3d 76 b9 b3 bc 03 02 64 bd 71 25 14 3d
       0.07184306 -0.02193902 -0.05566598 0.03616852
0000a0 10 43 ce 3c 62 21 4a bc d1 b0 07 3d c2 b0 02 3d
       0.025178462 -0.012337061 0.03312761 0.03190685
0000b0 36 d2 95 3c 43 f4 39 3c d4 ef ac ba bc f8 a4 3d
       0.018288713 0.01134974 -0.0013194033 0.08055255
0000c0 63 a3 0d bd eb 4f 7f bb d3 3d 07 bd 97 ba 3f be
       -0.034579646 -0.0038957547 -0.033017945 -0.18723522
0000d0 69 6a 44 bd 44 f1 dc bc 08 19 98 3d f0 e9 ab ba
       -0.047953043 -0.026970513 0.07426649 -0.0013115983
0000e0 1a d3 00 3d 82 08 09 3d 5a b1 fb bc f8 98 e9 3b
       0.031451322 0.03345538 -0.030724216 0.007128831
0000f0 4f bf 08 3c fe 31 11 3b 80 11 2f bd a8 03 13 bc
       0.008346393 0.0022155042 -0.0427413 -0.00897304

StatefulPartitionedCall/sequential/dense_3/MatMul/ReadVariableOp/transpose f4 [32, 64]
000000 b5 aa 1c 3f 80 cc 11 3e 7c c5 d0 be 91 69 88 3e
       0.6119798 0.14238167 -0.4077567 0.2664304
000010 7e cd 6b be 2d 43 69 3f 49 4e 63 3e 06 77 59 be
       -0.23027608 0.9111813 0.22197832 -0.2123681
000020 10 17 03 be 9d 6b 62 3d fe 2b 48 3e e4 b5 84 be
       -0.12801766 0.05527841 0.19548032 -0.25920022
000030 b8 8b 60 bb 1a fc e9 bc 8f 82 d7 3d 0f 8a 80 3d
       -0.0034262966 -0.028562594 0.10522949 0.062763326
000040 ec 10 eb be 5c bc e2 3b 59 bd 97 3d c2 84 c3 be
       -0.45911348 0.006919427 0.07409162 -0.38187224
000050 48 df 74 3e ec 87 05 bf 8d f6 e4 3e 84 7f ed 3c
       0.239133 -0.52160525 0.44719353 0.028991468
000060 e2 6f 18 3e e3 8d 81 be cb 45 1f 3d b7 ee ad 3d
       0.1488643 -0.25303563 0.03888492 0.08492797
000070 a4 e3 e0 be 32 63 0d 3d 59 41 83 3e 54 42 a3 be
       -0.43923676 0.03451843 0.25635794 -0.31886542
000080 0f e9 25 3d ef d8 06 bd 2b 42 f3 3e 32 7d 20 bd
       0.040505465 -0.032921728 0.4751142 -0.039181896
000090 4c 74 e9 3c 84 13 43 3e fa 0d ee 3d 74 9d e8 3e
       0.028497837 0.19050413 0.116237596 0.45432627
0000a0 a2 e5 5a bc 81 a2 c7 3e 15 e4 3c be 73 e8 02 3f
       -0.013360413 0.38991168 -0.18446381 0.5113594
0000b0 69 d4 e0 be 8d 7d c3 bd cd 35 41 3e d6 91 88 3e
       -0.43912056 -0.09545431 0.1886818 0.26673764
0000c0 f1 3b f8 bc 61 37 4f be bd b1 cd bd ab c8 7b bf
       -0.03030202 -0.20235969 -0.100436665 -0.9835307
0000d0 0a c5 84 be 88 7c aa 3d bb 5e 83 be f8 6f 88 3e
       -0.2593158 0.08324534 -0.2565821 0.26647925
0000e0 af 17 e6 bd 8a 7c 4d bd 00 de 89 bc 9e 25 39 3e
       -0.11234986 -0.050167598 -0.01682949 0.18080756
0000f0 a9 c6 1a 3e 96 d0 90 3e f2 43 1c 3e 26 c2 68 3f
       0.15114845 0.28284138 0.15260294 0.90921247
000100 da 56 8a bd 0b f4 67 3e c2 4c aa 3d 32 b3 24 3e
       -0.06754847 0.22651689 0.08315422 0.16083983
000110 eb de 5f be 4e 0f 48 be 08 1a 33 be ad 06 48 be
       -0.2186238 -0.19537088 -0.17490399 -0.19533797
000120 20 8c ea 3d 74 d5 3b 3d f0 8b f3 3c 53 b1 cd bd
       0.11452508 0.04585786 0.029729813 -0.100435875
000130 70 1d c2 bd 70 5f 3e 3e c7 38 89 be fb 08 07 be
       -0.09478271 0.18591094 -0.2680113 -0.1318702
000140 b5 cd 4d bd a8 86 fe bd b6 a7 c0 bd a5 b7 ce 3c
       -0.050245006 -0.124280274 -0.09406988 0.025234053
000150 e9 43 ad 3d 40 bd 7a be eb 12 7a 3e 89 20 91 bd
       0.084602185 -0.24486256 0.24421279 -0.07086284
000160 9b 46 1c 3e f8 ed bc 3c 14 3e 29 be 16 a2 12 be
       0.15261309 0.023062691 -0.16527587 -0.14319643
000170 df 13 69 be 32 55 44 3d 73 ee 1d bd 74 52 e1 bd
       -0.22761486 0.04793281 -0.03855748 -0.11002055
000180 08 3c 15 bb 1f c1 04 3d d6 18 02 3c b2 7f 17 be
       -0.0022771377 0.032410737 0.007940492 -0.14794806
000190 91 6d 6f 3e 2a 3c 4e 3e 08 cf f4 3d ef 50 9f be
       0.2338164 0.20140138 0.119535506 -0.31116435
0001a0 47 ed 17 bd 11 9b ed 3d 72 80 46 3d 9f fe c8 be
       -0.03709152 0.11601842 0.04846234 -0.3925676
0001b0 fd 4d f4 3b 1e ae 47 be 1f 9d f4 bd ca f0 85 be
       0.007455586 -0.19500014 -0.11944031 -0.2616027
0001c0 00 6d 04 3e 8d 96 46 3e 2a c4 67 be aa 5d 5e 3d
       0.12932205 0.19393368 -0.22633424 0.054288544
0001d0 4e a4 3f be 78 0b 14 3e 3a a6 ff bd 4c 03 8e be
       -0.18715021 0.144575 -0.12482877 -0.2773689
0001e0 af 00 47 3e 86 f3 5d be 50 c1 2e be fd 39 78 3e
       0.19433855 -0.21674928 -0.1706593 0.24240871
0001f0 0d 05 33 bc 43 22 46 3e 70 2c 63 3e d9 89 5d 3d
       -0.010926497 0.19349007 0.2218492 0.05408654
000200 49 4b 2c bf 1a 7b 23 3f c1 5f db bd 46 56 87 3e
       -0.67302376 0.63859713 -0.10711623 0.2643301
000210 bb 3c 69 3e a3 4f d8 be 57 04 a0 3e d8 ff c3 3d
       0.22777073 -0.42248258 0.3125331 0.09570283
000220 64 72 1a 3e 34 ca c8 bd 3d 4f 4a 3e 11 00 3a 3e
       0.15082699 -0.09804192 0.1975679 0.18164088
000230 f6 84 82 ba bd b6 1a 3e 73 54 ba be 3e d7 6f 3e
       -0.0009957838 0.15108772 -0.36392555 0.23421952
000240 10 45 91 3e f0 bb d5 3c a5 1e c2 bb c3 90 86 3e
       0.28373003 0.026090592 -0.0059240633 0.2628232
000250 78 7a 1f be 0e 51 29 bd e2 b9 7b be f3 61 65 bc
       -0.15574062 -0.041337065 -0.24582627 -0.014000404
000260 a2 c5 d3 3d 22 5c 02 3f 7f e0 4c be c4 4a f5 bd
       0.1034043 0.50921834 -0.20007513 -0.11977151
000270 bf 3d f0 be 24 af 96 bd 3d d0 46 be 9d 1f 30 be
       -0.4692211 -0.07357624 -0.19415374 -0.1719956
000280 c8 8f 58 be 60 fb ac bd 89 4b 8b be 54 6a 24 3e
       -0.21148598 -0.084463835 -0.27206066 0.16056186
000290 85 ce bf 3e 34 ff be bd 68 c1 f8 bc 8c fb cc 3d
       0.3746225 -0.0932602 -0.03036566 0.10008916
0002a0 61 99 7e be da 1a 17 bf a4 e3 81 3e 1a 47 7c bd
       -0.24863197 -0.5902535 0.2536899 -0.061591245
0002b0 c2 31 9f 3e 71 28 f9 3e 9f 41 bf 3d 17 f3 9e be
       0.3109265 0.48663667 0.09338688 -0.31044838
0002c0 1f 66 bc 3d c7 3f a0 bd 40 e5 be 3d 89 7b b9 3e
       0.091991656 -0.078246646 0.0932107 0.36227062
0002d0 b0 8f c8 bd ac af 28 be a8 bc ba bd ab 35 61 be
       -0.09793031 -0.16473264 -0.091180146 -0.21993129
0002e0 0f 2e ec 3d 84 29 81 bd 08 de 62 3e 63 53 09 be
       0.115322225 -0.063067466 0.2215501 -0.13410716
0002f0 cf 9e 13 3d 62 bd 75 be 92 16 60 3e 00 f4 c8 be
       0.036040124 -0.23998025 0.2188361 -0.39248657
000300 8c 87 b2 be e6 a4 5a 3d 67 01 23 bb 21 37 ac 3d
       -0.3486904 0.053379916 -0.0024872662 0.084089525
000310 43 36 90 bd fc 27 2b 3f 95 04 d1 3d ef b1 2c 3e
       -0.070415996 0.66857886 0.10205952 0.16864751
000320 20 eb d3 3d 4c e2 04 3f 94 5f 18 3e 57 8f 3c 3e
       0.10347581 0.519078 0.1488021 0.18414055
000330 ba 0a dc bd 05 0a 80 3e 16 f8 f7 bd a7 ab ba 3e
       -0.107442334 0.25007644 -0.121078655 0.36459085
000340 4d 70 dd be 09 af 7b 3e 68 d0 89 3e 37 54 ce 3e
       -0.4324974 0.2457849 0.26916814 0.40298626
000350 b7 0e 34 3f 86 c3 1c 3e e8 c4 5c 3e 68 85 fa 3d
       0.70334953 0.15308961 0.21559489 0.122324765
000360 1a 8b c6 bd 40 3b 17 bf cd de 30 3e ca c9 09 be
       -0.096945 -0.59074783 0.17272492 -0.13455883
000370 5f 7d 59 be bd 95 9b bd 84 c8 c2 3e 6e 3c 7c 3e
       -0.21239232 -0.0759692 0.38043606 0.24632427
000380 7d 3a 24 be d8 aa 85 bd b4 77 ab bd ba 79 03 be
       -0.16037937 -0.065267265 -0.08372441 -0.12839404
000390 34 10 b7 3e a1 1a 07 be dc cf 0c be 5b c2 d0 be
       0.3575455 -0.13193752 -0.13751167 -0.4077328
0003a0 f5 4b ba 3e ad 01 ae 3d bb 49 f4 3d f4 21 ad bd
       0.36386076 0.084964134 0.119281255 -0.08453742
0003b0 24 4b fc 3d 56 1b d8 bd 8d 09 05 3e 16 78 ff 3d
       0.123190194 -0.10552089 0.12991925 0.124740764
0003c0 45 81 c5 bc eb e5 99 3e 02 c8 86 be a4 fb 79 be
       -0.024109492 0.30058226 -0.2632447 -0.244124
0003d0 ad ef e7 3b 6b 96 fa ba 8c 0f bd bd 78 9a 93 3d
       0.007078132 -0.0019118314 -0.09231481 0.07207197
0003e0 bb 19 5d 3d 4c 46 54 3e db c5 a6 3d 15 b0 17 3f
       0.053979617 0.20729941 0.08143207 0.59253055
0003f0 dd 07 84 be dd 2e 5f be a8 de 6c be a3 87 d4 3e
       -0.2578725 -0.2179522 -0.23131812 0.41509733

StatefulPartitionedCall/sequential/dense_3/MatMul_bias f4 [32]
000000 f0 ce 65 bd 46 b3 a7 bc ac 2b 99 3d d3 c6 cf 3d
       -0.056105554 -0.020471226 0.07479033 0.101453446
000010 c1 65 c6 3d 42 29 a4 3d 36 9a 93 3b b9 b7 0d bc
       0.09687377 0.08015682 0.0045044674 -0.00864976
000020 40 e8 0e 3d bb e1 37 bd df 0e 64 3d 16 d8 2e 3d
       0.03488946 -0.044893008 0.055678245 0.042686544
000030 fc 50 cf 3c 36 a9 13 3d 1c 32 4e 3d a3 90 05 3d
       0.025307171 0.036050044 0.050340757 0.03260864
000040 e9 b0 8b 3d 3b a9 1a bd 04 5e 32 bd 33 90 70 3d
       0.06820852 -0.037759047 -0.04354669 0.05873127
000050 52 97 d3 3d e0 c3 64 3d 98 00 2d bc 02 8e 19 bd
       0.103315964 0.055850863 -0.010559224 -0.037488945
000060 e1 92 b7 3d cc cc 62 3d 12 aa c6 bd 12 23 82 3d
       0.08963562 0.05537109 -0.09700407 0.063543454
000070 92 3b a4 bd d4 e2 f2 3d aa f5 97 3c d2 14 81 3b
       -0.08019175 0.1185967 0.018549759 0.0039392496

StatefulPartitionedCall/sequential/dense_4/MatMul/ReadVariableOp/transpose f4 [16, 32]
000000 0c 01 bb 3e 8a aa 4b bd 76 b1 f1 3e 04 6b 28 be
       0.36524236 -0.049723186 0.47205704 -0.16447073
000010 51 20 38 3e cc d3 4a 3d 8d 59 83 be d4 bc a5 3c
       0.17981078 0.04951839 -0.2565426 0.020231642
000020 6b ae ea 3e 1d 8c 78 be 1a fb 8d 3e d4 7d dd be
       0.45836195 -0.24272199 0.27730638 -0.43260062
000030 cc 78 83 be 7b 52 37 bd 62 dc b8 be fa 8c 1a 3e
       -0.25678098 -0.044756394 -0.3610564 0.15092841
000040 0e 31 7a bd 3d 1a a8 3e f5 18 a7 3c 7f ed 61 3e
       -0.06108194 0.32832518 0.020397643 0.22063254
000050 35 ac a5 3e 22 13 e2 3e ef 1e 10 3f 57 ea 61 be
       0.32357946 0.44155222 0.562972 -0.2206205
000060 f2 af 11 be 42 5d 16 3f 1c 2f df 3e c8 1d 12 3f
       -0.14227274 0.5873605 0.4359063 0.5707669
000070 54 4c 53 bf c9 5f 04 3e ad 67 72 3e 19 3a 20 3e
       -0.8253834 0.12927164 0.23672362 0.15647162
000080 fe 03 00 3f b7 6e 9a 3e 53 d3 43 be 1f 75 37 bc
       0.5000609 0.30162594 -0.19123583 -0.011197357
000090 02 ad 90 3e cc 4a 80 3e df 13 03 bf aa 1a 35 3d
       0.28256994 0.25057065 -0.51202196 0.044214882
0000a0 f0 8d 90 3c 3e 3b a3 be f0 55 d8 be 80 4f b7 be
       0.017645806 -0.31881136 -0.42253065 -0.3580284
0000b0 05 3e 39 3e a2 a1 88 be ee 2a 92 3e 70 66 db 3e
       0.18090065 -0.26685816 0.28548378 0.4285159
0000c0 75 e9 b6 3a 40 6a c8 bc 13 f5 ab be 45 7a 87 be
       0.0013955074 -0.024464726 -0.33585414 -0.26460472
0000d0 90 f8 dc 3c d3 aa b8 be bf c5 a9 3d bd 38 00 be
       0.026973993 -0.3606783 0.0828967 -0.12521644
0000e0 4c 60 73 be ee e4 bc 3d 41 48 8d bd 78 06 71 3e
       -0.23767203 0.092233524 -0.06898547 0.23537624
0000f0 a7 bf 52 bf fa d9 a3 3e 6b 7b 94 be cd cf b9 be
       -0.8232369 0.3200224 -0.2900041 -0.36291352
000100 97 0c 72 3e bf 48 e1 bc f2 a4 7e 3e 34 3b 62 3e
       0.23637615 -0.027500508 0.24867609 0.22092897
000110 22 36 c7 be ee 2f c7 be fc d8 fe 3d 27 27 69 bc
       -0.38908488 -0.38903755 0.1244373 -0.014230526
000120 d0 e5 36 3e d5 c7 b3 be 45 2c 85 3c a5 34 c3 be
       0.17861104 -0.35113397 0.01625646 -0.38126102
000130 24 c0 0c 3e 91 5a 8b bd ce 1b 42 3e 7f 26 28 be
       0.13745171 -0.068043835 0.18955919 -0.16420935
000140 9d 53 98 be 49 bd a9 3e 7f 2d 7f be 2a bc de be
       -0.29751292 0.33152226 -0.24919699 -0.43502933
000150 8f 25 12 be ae 54 ee bd 4e d6 33 bd 3f 33 da 3d
       -0.1427214 -0.11637245 -0.04390555 0.10654306
000160 12 56 b0 3d cc 61 c7 bd c7 5c 96 be 99 b7 11 3e
       0.086101666 -0.0973545 -0.29367658 0.14230193
000170 c2 6e d4 3c ae a8 1a be f3 23 16 be cf a9 14 bd
       0.02593172 -0.15103409 -0.14662151 -0.036294755
000180 2b 8c 31 bd a6 37 94 be 32 c2 30 3f 6a 48 30 be
       -0.043346565 -0.28948706 0.6904632 -0.17215124
000190 8b 3e 19 be 7e e4 e6 3e 05 68 17 bf a8 35 46 3e
       -0.14965264 0.450962 -0.59143096 0.19356406
0001a0 fe d7 ed bc d1 81 d9 bd 9b 82 3b bc 58 7f ab 3e
       -0.029033657 -0.10620464 -0.011444713 0.33495593
0001b0 aa fb a8 3d 3f a1 90 be 47 0e 3b be 4e 5d 39 3f
       0.08251126 -0.2824802 -0.18267165 0.72407997
0001c0 d6 a7 f7 3d ec 69 8f be c8 c5 9d be 59 21 ef 3e
       0.12092559 -0.280105 -0.30814958 0.4670513
0001d0 9b f2 c9 3e 55 d8 7e be 40 35 a7 be ad 0d 89 3d
       0.39442906 -0.24887212 -0.32657814 0.066920616
0001e0 8d b2 1d 3e 70 5f 57 3e 83 d5 27 3f 40 71 11 bc
       0.15400143 0.210325 0.6556017 -0.008877099
0001f0 91 9e f8 3a e5 05 a6 3e 13 b1 50 be f4 87 58 3d
       0.0018968155 0.32426372 -0.20380048 0.05286403
000200 dc b8 a1 3e 4c db a1 3e 0c ac 17 3e e7 37 cd 3e
       0.3158635 0.31612623 0.14811724 0.40081713
000210 4f 0a 30 3e 8e 7b 08 3c 37 48 41 bd 70 65 3e 3e
       0.17191432 0.008330239 -0.04718801 0.18593383
000220 4a fc a2 be be 2c c5 be 24 6c 23 bc e5 c9 77 3c
       -0.31833106 -0.38510698 -0.009974513 0.015123819
000230 fc 05 10 bf ed 30 78 be 34 5c 1f be 2d 92 90 3e
       -0.5625913 -0.24237414 -0.15562516 0.28236523
000240 ce a8 d1 3e 18 09 ba bd 19 43 81 bd f7 60 99 be
       0.409491 -0.09083766 -0.06311626 -0.2995679
000250 69 f2 8a bb 0d 7f 8e 3d ea 2c 91 bd 93 df 2f 3e
       -0.0042403233 0.06957827 -0.07088645 0.1717513
000260 e0 78 3f be 8d 3c d3 bd 96 b4 39 3e e6 ef 83 be
       -0.18698454 -0.103142835 0.18135294 -0.25768965
000270 7e 40 e2 3e e7 13 d8 3e 16 2a 10 3f 39 82 28 3f
       0.4418983 0.42202684 0.5631422 0.65823704
000280 1b 6c 37 3f 2b 3c f1 3d 3c c0 4d bf 1a 0b c2 3e
       0.7164933 0.11779054 -0.8037145 0.37899095
000290 6a 94 a6 3e da b2 f3 3d 24 d7 71 3e f4 c1 f7 3e
       0.32535106 0.118993476 0.23617226 0.48390162
0002a0 33 1b 43 3e 3c 28 5e 3e 37 4c 03 3d 0b 75 28 be
       0.19053344 0.21695036 0.032055106 -0.16450898
0002b0 73 28 45 be f5 04 66 be f9 c2 b3 3e 19 40 a4 3e
       -0.19253711 -0.22462828 0.3510969 0.32080153
0002c0 28 b0 02 3f b1 6b ff 3c ca 80 3c bd 22 b9 43 be
       0.51050043 0.031179281 -0.04602126 -0.19113591
0002d0 9d 4f 91 bd 6d 46 c9 3c 93 85 fd be 8b ff b0 be
       -0.07095263 0.024569714 -0.49515972 -0.34569964
0002e0 0e 92 93 3e 00 bc 21 bf fa 93 05 bf 70 b9 8b 3e
       0.28822368 -0.6317749 -0.5217892 0.27289915
0002f0 72 6e 45 3f 74 51 c3 3e fd 59 22 3e 19 2a 97 be
       0.7712165 0.3814808 0.1585464 -0.29524305
000300 1b f4 86 3e b0 75 0b be ac 98 09 be 8b 65 af bd
       0.26358113 -0.13619113 -0.13437146 -0.0856429
000310 db ed 8e 3e 30 0d 04 3d 0d 41 92 be c9 e6 80 3e
       0.27915844 0.03223914 -0.28565255 0.25176075
000320 f8 e1 30 be ad 6c 7c 3d 20 68 59 be de e1 3c be
       -0.172737 0.06162708 -0.21231127 -0.18445536
000330 c3 1f 59 be 18 ff dc 3c aa 03 90 3c 7b 34 e1 bc
       -0.21203522 0.026977107 0.017579872 -0.027490845
000340 71 6d b0 be c3 52 3c be 33 01 3f 3e 49 84 a0 be
       -0.34458497 -0.18390946 0.18652801 -0.31350926
000350 f1 de 5e be 17 0d 57 3e 26 6e b4 be 80 94 75 3c
       -0.21764733 0.21001087 -0.35240287 0.014989018
000360 1b 7c 92 3e df c4 94 be ae f3 7f 3e 59 e8 dd 3d
       0.2861031 -0.2905645 0.249953 0.108353324
000370 40 c8 db bd b3 82 dc bd 4f 00 81 be 2e f8 2c 3d
       -0.10731554 -0.107671164 -0.25195548 0.04222887
000380 d1 e2 3f bf f2 3a 55 3d d5 9d ff 3e 6e bb 96 3e
       -0.7495547 0.052058168 0.49925104 0.29439873
000390 d1 5d 76 3e 16 91 8c bd 38 3f 32 3e 0a 8d 8c 3e
       0.24059226 -0.068636104 0.17406929 0.27451354
0003a0 34 84 83 3d 16 2e f1 3e 8f 08 ba be ee 97 b1 3d
       0.064217 0.47105473 -0.36334655 0.086715564
0003b0 7f 8a b5 3e 9e bd d9 bd b4 05 db be e5 c9 15 bf
       0.35457227 -0.1063187 -0.4277779 -0.5851119
0003c0 8f bd 66 be bd 00 b5 bd c3 e5 0a 3f 7c 97 9a bb
       -0.22533248 -0.088380314 0.5425684 -0.0047177654
0003d0 15 59 c4 bd c9 d4 a9 be 93 ca b0 3e 25 d0 13 bd
       -0.095873035 -0.33170155 0.34529552 -0.036087174
0003e0 58 1e f9 3a b0 1a fc 3d 4e 52 4f bf 78 f3 2f be
       0.0019006236 0.12309778 -0.8098496 -0.1718272
0003f0 c5 b3 8a be ed cf 11 3e ca c6 b7 be ef 70 95 3e
       -0.27090278 0.14239474 -0.35893852 0.29187724

StatefulPartitionedCall/sequential/dense_4/MatMul_bias f4 [16]
000000 e5 9f 8f 3d 30 eb 4f 3d c1 bf c5 bd ad 6f 64 3d
       0.07012919 0.0507614 -0.09655715 0.055770565
000010 f1 34 c4 3c c9 17 49 3c 4f a7 79 bc e5 f6 9a 3c
       0.023951026 0.012273737 -0.015237643 0.018916557
000020 b4 8f 30 3d 1c a6 3a 3d bc 1f 02 be 3c 0c e2 bc
       0.043105796 0.04556857 -0.12707418 -0.027593724
000030 49 15 f3 3c 16 c9 fd 3a 35 20 04 bc 10 b2 cd 3d
       0.029673235 0.0019362296 -0.008064319 0.10043728
