models/tflite_model.tflite (tflite, 200608 bytes, 12 tensors)

sequential_1/dense_1/MatMul/ReadVariableOp/transpose f4 [256, 21]
0	0xbe80e9ae	-0.25178283
1	0xbda10cd9	-0.078637786
2	0x3db13531	0.086527236
3	0xbdaba6f2	-0.08381452
4	0x3dabd6f9	0.08390612
5	0xbe959667	-0.2921631
6	0x3e0e0df4	0.1387251
7	0x3dea8988	0.11452013
8	0x3e0df73a	0.1386384
9	0x3e7a70e9	0.24457134
10	0x3ea50c5d	0.32235995
11	0x3e9d365c	0.30705535
12	0x3f2ade48	0.66745424
13	0x3e1dda3f	0.15415286
14	0x3dd5786c	0.10423359
15	0xbe6df732	-0.23238829
16	0xbf1b721e	-0.60721004
17	0xbf0ca4f5	-0.54939204
18	0x3eb5534b	0.3541511
19	0x3d0b60d0	0.034027874
20	0x3e08154a	0.13289371
21	0xbe41b5b3	-0.18916969
22	0xbe982e83	-0.29722986
23	0x3cc315d4	0.02381412
24	0xbeaba2e6	-0.3352272
25	0x3e57b89e	0.2106652
26	0xbdcc8dab	-0.099879585
27	0x3e5bf4e0	0.21480131
28	0x39eb7600	0.0004491061
29	0x3f1d62ea	0.61479056
30	0xbf6cf54a	-0.9256178
31	0x3f372598	0.7154174
32	0x3b920b34	0.004456902
33	0xbde92141	-0.11383296
34	0x3e844950	0.25837183
35	0xbd9a65c3	-0.07538941
36	0x3d7c1774	0.061545804
37	0x3e68226c	0.22669381
38	0xbe664b26	-0.22489604
39	0xbe90adbd	-0.28257552
40	0xbc6ddc40	-0.014517844
41	0x3e791fc9	0.24328531
42	0xbcb1c67a	-0.021701086
43	0xbcf87e2a	-0.030333597
44	0x3bba94ca	0.0056940066
45	0xbd64dfc3	-0.05587746
46	0x3da061b9	0.07831139
47	0x3d56ac7d	0.05241059
48	0x3d861d4a	0.06548555
49	0x3defd71c	0.11710951
50	0xbe1e0f48	-0.15435517
51	0x3d9673ef	0.07346331
52	0xbdc2bc52	-0.095085755
53	0xbe9ae23c	-0.30250728
54	0xbe2f8aa7	-0.17142735
55	0xbe704547	-0.23463927
56	0x3dac7c4c	0.08422145
57	0x3dc50cd3	0.09621587
58	0xbda07067	-0.07833939
59	0x3e147345	0.14497097
60	0xbe97785d	-0.29584017
61	0xbdcb3450	-0.09922087
62	0xbf095ab7	-0.53654045
63	0x3e2d550c	0.16926974
64	0xbe1e205d	-0.15442033
65	0x3d185830	0.037193477
66	0xc050ad14	-3.2605639
67	0xbd2025d3	-0.039098572
68	0x3ce3c332	0.027803037
69	0x3de7b33c	0.11313483
70	0x3e0c3e42	0.13695624
71	0xbe078cae	-0.13237259
72	0x3e073179	0.13202466
73	0x3e5cda7b	0.21567719
74	0x3d9ede29	0.077572174
75	0xbdc54514	-0.09632316
76	0x3e3b1707	0.18270503
77	0x3df62ce2	0.120202795
78	0x3d958448	0.07300621
79	0x3e24ede4	0.16106373
80	0x3ebf9233	0.3741623
81	0x3b0d0625	0.0021518555
82	0xbe146324	-0.14490944
83	0xbef4f144	-0.4784032
84	0x3e0f277c	0.13979906
85	0x3d857803	0.06517031
86	0x3dc22129	0.09478981
87	0x3c45173d	0.012029466
88	0xbe8c7b78	-0.2743795
89	0x3d81aad3	0.0633141
90	0x3da62181	0.08111859
91	0x3db012f8	0.08597368
92	0x3ebf90e7	0.3741524
93	0xbeacfead	-0.33788052
94	0x3dec546a	0.11539538
95	0xbd692787	-0.05692246
96	0x3d4e5be3	0.0503806
97	0x3f5bb842	0.8582803
98	0x3b7c0725	0.0038456407
99	0x3bbd0cbf	0.0057693417
100	0xbd020f4b	-0.031752866
101	0xbcc5bdd1	-0.024138363
102	0xbe02e2f8	-0.12781894
103	0x3d066380	0.032809734
104	0x3c9355d9	0.017985271
105	0x3da3a89c	0.07991144
106	0xbcded8ef	-0.027203051
107	0x3ca3a53f	0.019976256
108	0x3b8d10c7	0.0043049785
109	0xbe831cee	-0.2560801
110	0x3e009cd9	0.12559833
111	0xbdf85c32	-0.1212696
112	0x3da2a9c0	0.079425335
113	0xbe4a44a4	-0.19752747
114	0x3e38ef9e	0.18060157
115	0x3e9b28b5	0.30304495
116	0x3dc4a933	0.09602585
117	0x3f267634	0.65024114
118	0xbeb73a87	-0.3578684
119	0xbd2ed2ac	-0.04268138
120	0x3cb0f5b2	0.021601532
121	0xbeb68ec7	-0.35655805
122	0x3d9a47f3	0.075332545
123	0xbce6006a	-0.02807637
124	0xbe0a4638	-0.13503349
125	0xbee1c164	-0.44092858
126	0x3de9de34	0.11419335
127	0xbd9ae9b1	-0.07564104
128	0xbe0910da	-0.13385335
129	0xbdeb36fb	-0.11485096
130	0xbda311b7	-0.07962363
131	0xbb7cc99b	-0.0038572315
132	0x3acf1100	0.0015797913
133	0x3d8ae5b2	0.06782092
134	0xbe1d6625	-0.15370996
135	0x3cf653e0	0.030069292
136	0xbde3cd2a	-0.11123116
137	0xbc9e915e	-0.019356426
138	0xbdd8b305	-0.1058102
139	0x3dd2a998	0.10286254
140	0xbe12c2c3	-0.14332108
141	0xbd4aa79c	-0.04947625
142	0xbdc8f76a	-0.098128155
143	0xbd6c190a	-0.057641067
144	0x3dc42b3c	0.09578559
145	0x3da740ee	0.08166681
146	0xbd8695d9	-0.0657155
147	0x3d0f5203	0.03499032
148	0xbd93ccb9	-0.07216782
149	0x3e042993	0.12906484
150	0x3e446345	0.19178493
151	0x3e4326c0	0.1905775
152	0xbdee6037	-0.11639445
153	0xbe4c0ae9	-0.19926037
154	0x3cbe2290	0.02320984
155	0xbe0db61c	-0.13839
156	0x3dec1a50	0.11528456
157	0xbe19934e	-0.14997599
158	0x3dcbf1ea	0.09958251
159	0xbd286924	-0.041115895
160	0xbc52ac95	-0.01285853
161	0xbe2ff4a0	-0.17183161
162	0x3d851514	0.06498161
163	0xbe87209b	-0.26392063
164	0xbd09101d	-0.033462632
165	0x3dd0dae6	0.101980016
166	0x3da506f0	0.08057964
167	0x3f06a4d4	0.5259526
168	0x3ec12171	0.37720826
169	0xbdb6916d	-0.089144565
170	0xbd204d5e	-0.039136283
171	0x3df728bb	0.120683156
172	0x3e489a9e	0.19590232
173	0xbdc2b2b8	-0.09506744
174	0xbe359575	-0.17732795
175	0xbd7384e4	-0.059452906
176	0x3e103b76	0.14085183
177	0x3def66d2	0.11689533
178	0x3e141ae3	0.14463381
179	0xc00258e9	-2.0366766
180	0x3e882ff4	0.26599085
181	0x3e32ef7d	0.1747417
182	0x3e375081	0.17901804
183	0xbb59dbd6	-0.0033242605
184	0x3e6ba80e	0.23013327
185	0x3e132d6a	0.14372793
186	0x3d2b2c72	0.041790433
187	0x3dc9fc8a	0.09862621
188	0x3f14dc81	0.5814896
189	0xbdf9c163	-0.12195089
190	0xbc33fbf6	-0.010985365
191	0x3c7a85b4	0.015290666
192	0x3dd4be3f	0.10387849
193	0xbe19f08b	-0.15033166
194	0x3e1817b2	0.14852789
195	0xbdd72d6a	-0.10506709
196	0x3dd66cf0	0.10469997
197	0x3e2f3000	0.17108154
198	0xbd0c5237	-0.034258094
199	0x3ed6c6eb	0.41948637
200	0xbe4d4651	-0.20046355
201	0x3ed6922c	0.41908395
202	0xbe2d3984	-0.16916472
203	0xbdff3fb9	-0.12463326
204	0xbc139332	-0.009007262
205	0xbe4b7188	-0.19867527
206	0xbe8d4ddf	-0.27598473
207	0xbd911a46	-0.070850894
208	0x3db1512a	0.08658059
209	0xbf73da0d	-0.95254594
210	0xbdbb062a	-0.09132035
211	0xbdbce623	-0.092235826
212	0x3e2fbe0c	0.17162341
213	0x3dfc315f	0.12314104
214	0xbd3e1faa	-0.046416916
215	0xbd0aa848	-0.03385189
216	0x3c816644	0.015795834
217	0xbdfcd90e	-0.123460874
218	0xbf165ccc	-0.58735347
219	0x3e0804fc	0.13283151
220	0xbd949f82	-0.07256986
221	0xbc8e1a87	-0.017346634
222	0x3e1f45cd	0.1555397
223	0xbe932644	-0.28740132
224	0xbd060894	-0.032723024
225	0x3c93f7e9	0.018062549
226	0x3d9a3fd4	0.075317055
227	0xbe8f77fe	-0.28021234
228	0x3c64295d	0.013925877
229	0xbd870deb	-0.065944515
230	0x3ef73d6d	0.48289052
231	0xbdc1469a	-0.09437294
232	0xbdddec68	-0.108361065
233	0xbe19cea5	-0.15020235
234	0x3dbda3c9	0.09259755
235	0xbe15cfb4	-0.14630014
236	0xbd580dd9	-0.05274758
237	0xbd398642	-0.045294054
238	0xbcabe7c8	-0.020984545
239	0x3df5b0fe	0.11996649
240	0x3df53138	0.11972278
241	0x3d14f341	0.036364798
242	0x3d72d602	0.059286125
243	0xbdc29588	-0.09501177
244	0xbc8b1ec3	-0.016982442
245	0x3d8fcdf2	0.07021703
246	0x3d5d4c03	0.05402757
247	0xbce02eab	-0.027366003
248	0x3dd1a9d7	0.102374725
249	0x3dd2f070	0.10299766
250	0xbdbc6d8d	-0.09200583
251	0xbcfad2ab	-0.030618032
252	0x3e681cf0	0.22667289
253	0xba97bc4e	-0.0011576505
254	0xbe31aa7e	-0.17350194
255	0xbe923e54	-0.28563178

sequential_1/dense_1/MatMul_bias f4 [256]
0	0x3b60a077	0.0034275332
1	0x3d41eac4	0.04734303
2	0xbd2a9410	-0.04164511
3	0x3d11a4f5	0.035557706
4	0xbc135e64	-0.008994672
5	0x3aece1d8	0.0018072678
6	0xbc1a1516	-0.009404441
7	0x3c290244	0.010315482
8	0x3bae37ba	0.0053167017
9	0x3c1ad6ed	0.009450656
10	0x3d363eaf	0.044493373
11	0xbc5b6548	-0.013390847
12	0xbd2f841a	-0.04285059
13	0xbcdc6885	-0.026905308
14	0x3ca532f2	0.020165894
15	0x3c68495c	0.0141776465
16	0xbd017720	-0.031607747
17	0x3ce1cfb7	0.027564866
18	0x3b67cba8	0.0035369191
19	0x3c80f09b	0.01573973
20	0x3d1810a6	0.037125252
21	0xbd9c78a6	-0.07640199
22	0x3d4d48a1	0.050118092
23	0x3ba85018	0.005136501
24	0x3ce7008f	0.028198509
25	0xba7227ec	-0.0009237516
26	0xbc54f343	-0.012997451
27	0x3c2db6ab	0.0106026335
28	0x3c94f55f	0.018183408
29	0xbbdbdb08	-0.00670946
30	0x3c2d1f72	0.010566579
31	0x3d2d8dd9	0.042371605
32	0x3be01b97	0.0068392265
33	0xbc4bc946	-0.012438124
34	0xbbe03d87	-0.006843272
35	0x3a3e8675	0.00072679605
36	0x3cf2be03	0.02963162
37	0xbc977a4e	-0.018490937
38	0xbcf477c4	-0.029842265
39	0xbce8ef9d	-0.028434569
40	0x3c4ca82c	0.012491267
41	0x3c932f41	0.017966868
42	0xbdb216a4	-0.086957246
43	0x3d0dca11	0.034616534
44	0x3d8ccf19	0.06875438
45	0x35d6b600	1.5997211e-06
46	0xbceb075f	-0.028690038
47	0x3c971cae	0.018446293
48	0x3c003cdc	0.00782701
49	0x3b8eca51	0.004357614
50	0xbd696ea4	-0.05699028
51	0x3c1791f9	0.009251111
52	0x00000000	0.0
53	0x3c54db82	0.012991788
54	0xbd10ad37	-0.03532144
55	0x00000000	0.0
56	0x3a2c58fa	0.0006574538
57	0xbd193479	-0.037403557
58	0xbcd7b064	-0.026329227
59	0x3ba06bda	0.0048956694
60	0xbcdba765	-0.026813218
61	0x3c4bce34	0.012439299
62	0xbc29b188	-0.010357268
63	0xbc3750a4	-0.01118866
64	0xbbc7154a	-0.006075536
65	0x00000000	0.0
66	0xbbaa6a3e	-0.0052006533
67	0x3d25402c	0.040344402
68	0x38d908a5	0.000103489765
69	0x00000000	0.0
70	0xbd95d5a6	-0.07316141
71	0xbcbbe82f	-0.022937862
72	0x3cb1329f	0.021630583
73	0xbc026285	-0.007958059
74	0xbc5ba16c	-0.013405185
75	0x3d14058a	0.036138095
76	0x3d09b77f	0.03362226
77	0xbd470498	-0.048588365
78	0x3cd83347	0.026391638
79	0x3cdc3687	0.02688147
80	0xbc5bbf86	-0.013412362
81	0xbc47ff2d	-0.012206835
82	0xbd904c2f	-0.07045781
83	0x3d76fa16	0.060297094
84	0xbc927a05	-0.01788045
85	0x3d31f9f5	0.04345127
86	0xbd0ab739	-0.03386614
87	0x3c55d3ba	0.013050968
88	0xbb73ae8b	-0.0037182893
89	0x3c34b22c	0.011028808
90	0x3ca87498	0.020563409
91	0xbacd6b2e	-0.0015672201
92	0x3a14e95f	0.0005680527
93	0xbb62d418	-0.003461128
94	0x3ca2862a	0.019839365
95	0xbba1af54	-0.004934231
96	0x3cacdfef	0.021102874
97	0xbce0dfdd	-0.027450496
98	0x3c5c10fe	0.013431786
99	0x3cd65666	0.026164245
100	0xbc39b2b3	-0.011334109
101	0xbb7c4c56	-0.0038497648
102	0xbd52450b	-0.051335376
103	0x3cfb6da7	0.030691935
104	0x3be9adc0	0.0071313083
105	0x3d2b1f4f	0.041777905
106	0x3cd0f01a	0.025505114
107	0xbc980829	-0.018558579
108	0xbd898205	-0.067142524
109	0xbca6698e	-0.020314004
110	0x3bcfd8c0	0.0063429773
111	0xbcf957d7	-0.030437393
112	0xbd021b87	-0.031764533
113	0xbcc35777	-0.023845417
114	0xbda58fb3	-0.08084049
115	0x3cb89ebb	0.022536626
116	0x3d101037	0.035171714
117	0x3c34b42c	0.011029284
118	0xbbf7da3a	-0.0075638564
119	0x3c66b3f5	0.014080991
120	0x3c36f6cb	0.0111672385
121	0x3cdb49ce	0.026768591
122	0x3d8f78ac	0.07005438
123	0x3bc37665	0.0059650415
124	0x3ca9de9c	0.020736031
125	0x3bbd04dc	0.0057684015
126	0x3cf25aa0	0.029584229
127	0xbcea8b97	-0.028631015
128	0xbcdc7707	-0.026912225
129	0x3c92af75	0.01790593
130	0x3d1d1729	0.038352165
131	0x3d1407cd	0.036140252
132	0xbbf84c28	-0.007577438
133	0xbbfcae5a	-0.007711214
134	0xbb171a1b	-0.0023056332
135	0xb957e8d7	-0.00020590737
136	0xbc9225f3	-0.017840361
137	0xbd0b660a	-0.03403286
138	0xbd624012	-0.055236883
139	0x3c2d902c	0.010593455
140	0xbc8e8971	-0.017399522
141	0x3ad4a14a	0.0016222384
142	0xbcd3d533	-0.025858497
143	0x3b946cf4	0.00452959
144	0xbb78f997	-0.0037990564
145	0x3d204562	0.03912867
146	0x3c7915b2	0.0152029265
147	0x3cfcbe4e	0.030852463
148	0x3bfa8cbe	0.0076461723
149	0xbbfc8f09	-0.007707481
150	0x3d0fe7d9	0.035133217
151	0x3c9e6377	0.019334538
152	0x3cf248d2	0.029575739
153	0xbb34068e	-0.0027469727
154	0x3b65da85	0.0035072875
155	0xbd4583c2	-0.048221357
156	0x3d7671db	0.060167175
157	0xbc2dfa57	-0.010618768
158	0x3c70ae49	0.01468999
159	0xbc4aa375	-0.012368073
160	0x3d8efc84	0.06981757
161	0xbd61a49c	-0.055088624
162	0xbcf5e6e1	-0.030017318
163	0xbca62fb3	-0.020286417
164	0xbd851350	-0.06497824
165	0xbbfee4a7	-0.0077787223
166	0x3ccb30e0	0.024803579
167	0x3baab36e	0.005209378
168	0x3d06c20a	0.032899894
169	0xbcc3af6b	-0.023887357
170	0xbd919774	-0.071089655
171	0x3ccb26ac	0.024798714
172	0x3b630fc9	0.003464686
173	0xbd3fc5ac	-0.046819374
174	0xbc1cb9e3	-0.009565803
175	0xbd166f48	-0.03672722
176	0xbd0e54ea	-0.03474895
177	0x3d1f0e79	0.03883216
178	0xbc45652d	-0.012048048
179	0x3add0d81	0.0016864986
180	0x3c2d9b2a	0.010596076
181	0xbd22e040	-0.039764643
182	0xbd21f990	-0.039544642
183	0x3c60c08a	0.01371778
184	0xbbb3e930	-0.0054904446
185	0xbc0dd570	-0.0086568445
186	0xbcdce98e	-0.026966836
187	0x3a3cb3ed	0.0007198442
188	0xbcdfd4de	-0.027323183
189	0x3c88f4a1	0.01671821
190	0xbb4d7f1f	-0.0031356288
191	0x3d1d5ca4	0.038418427
192	0x393b3de4	0.00017856766
193	0xb8543518	-5.0594186e-05
194	0x3d33c118	0.04388532
195	0xbd20698a	-0.03916315
196	0x3d65a252	0.056063004
197	0xbc8e5f2a	-0.017379362
198	0x00000000	0.0
199	0xbb9dfbad	-0.004821262
200	0x3d005617	0.0313321
201	0xbd1d6b49	-0.038432393
202	0xbccbcc1b	-0.024877599
203	0xbc73713c	-0.01485854
204	0xbc711efb	-0.014716859
205	0xbc34bfa0	-0.011032015
206	0x3d1abb44	0.037776247
207	0xbd2a4ff7	-0.041580167
208	0x3d053e73	0.03253026
209	0xbcbcec94	-0.023062028
210	0x3d6e28da	0.058144428
211	0x3d32b6c8	0.043631345
212	0xbc290901	-0.010317088
213	0xbcc036d0	-0.023463637
214	0x3db5f4f5	0.088846125
215	0xbd3efcc1	-0.046627764
216	0xbc1000f0	-0.008789286
217	0xbce55b3b	-0.027997604
218	0xbce595fa	-0.028025616
219	0x3ca9cb62	0.020726863
220	0xbd15ef84	-0.036605373
221	0x3ca41680	0.02003026
222	0xbbb2180e	-0.0054349964
223	0xba27db8a	-0.00064032583
224	0x3cd57918	0.026058719
225	0x3c9cfa97	0.01916246
226	0x3c91098b	0.017704746
227	0x3d0534b2	0.032520957
228	0x3cf4acdd	0.029867584
229	0xbcba2a6d	-0.022725308
230	0xbc227675	-0.009915938
231	0xbcc168e9	-0.023609595
232	0xbcd14672	-0.025546286
233	0x3b711895	0.0036788334
234	0x3b93fcf2	0.0045162374
235	0x3c62fd81	0.013854385
236	0x3baf6b1a	0.0053533437
237	0x3d58b929	0.052910957
238	0xba0aa1af	-0.0005288375
239	0xbd3aa2b9	-0.04556534
240	0xbcac922f	-0.0210658
241	0xbd589515	-0.05287655
242	0xbcb9e05a	-0.022689987
243	0x3c1f2443	0.009713235
244	0xbd1d5a6e	-0.03841632
245	0xbcf47a76	-0.02984355
246	0x3ca6cbad	0.020360792
247	0x3c54d213	0.012989539
248	0xbc18e8b3	-0.009332824
249	0x3c960344	0.018312104
250	0xbb85c1e8	-0.0040819533
251	0x3cd80f46	0.02637447
252	0x3ad7ee55	0.0016474227
253	0xbaa6ce71	-0.0012726319
254	0xbc05e7b1	-0.008172915
255	0x3d1fd088	0.03901723

sequential_1/dense_2/MatMul/ReadVariableOp/transpose f4 [128, 256]
0	0xbf01c2c2	-0.506878
1	0xbec3d809	-0.3825076
2	0xbd391ed9	-0.045195434
3	0x3c39854c	0.011323284
4	0x3d04afc2	0.03239418
5	0xbd967ce9	-0.073480435
6	0x3dafda7e	0.08586596
7	0x3e4726d1	0.19448401
8	0xbe77190b	-0.24130647
9	0xbe7f4149	-0.24927248
10	0x3e6f9144	0.23395258
11	0xbddf765e	-0.109112486
12	0x3e45085e	0.19241473
13	0x3e0d97b8	0.13827407
14	0xbe8b5ec1	-0.2722073
15	0xbd1576b0	-0.036490142
16	0xbdaeaa21	-0.08528543
17	0xbd5d56bf	-0.054037806
18	0x3e2ee890	0.17080903
19	0x3e101b20	0.14072847
20	0xbf09f2d2	-0.5388614
21	0x3dc11d0f	0.094293706
22	0xbddfc3d4	-0.10926023
23	0x3dbcafca	0.092132166
24	0x3eaec800	0.34136963
25	0x3d127a24	0.035761014
26	0xbd944d1c	-0.0724127
27	0xbdb42f72	-0.08798112
28	0x3ec878d8	0.39154696
29	0x3e4d062b	0.20021884
30	0xbe4e879f	-0.20168923
31	0x3e958211	0.29200795
32	0xbe991aa7	-0.29903147
33	0xbd1c1f6f	-0.038115915
34	0xbea35748	-0.31902528
35	0xbe1bb793	-0.15206747
36	0xbe924b3f	-0.28573033
37	0x3c7849dd	0.015154329
38	0xbe3a6c87	-0.18205462
39	0x3e7abc6b	0.24485938
40	0xbe233a28	-0.15940154
41	0xbdd18e32	-0.102322
42	0x3e020fe2	0.12701371
43	0x3ec1ab78	0.37826133
44	0xbe8f2379	-0.2795675
45	0xbe0c1890	-0.13681245
46	0xbcbb3daf	-0.022856561
47	0xbd9ce1ae	-0.076602325
48	0x3ed63796	0.41839284
49	0xbeaa8d30	-0.33310843
50	0x3dc422ec	0.09576973
51	0xbd854bc5	-0.065085925
52	0x3b124800	0.0022320747
53	0xbdc5e625	-0.09663037
54	0x3d0d7770	0.034537733
55	0xbde72aec	-0.112874836
56	0x3e32e12a	0.17468706
57	0x3e12fe42	0.14354804
58	0x3d272fcd	0.04081707
59	0xbe7db49d	-0.2477593
60	0x3e197d39	0.14989175
61	0xbe1334b8	-0.1437558
62	0x3d64ae22	0.05583013
63	0x3ce269a7	0.02763827
64	0xbd526c46	-0.05137279
65	0x3da07224	0.078342706
66	0x3d8b346f	0.0679711
67	0xbdb7ddf1	-0.08977879
68	0xbe61368a	-0.21993461
69	0xbd2c69f8	-0.042093247
70	0x3ce98e7c	0.028510325
71	0xbd091a9a	-0.033472635
72	0x3e7f2ecd	0.24920197
73	0x3e90adce	0.28257602
74	0xbdf6da4d	-0.12053356
75	0x3c8f06b4	0.017459251
76	0xbec17631	-0.37785485
77	0x3e428c60	0.18998861
78	0xbe8d99c0	-0.27656364
79	0xbe044e7b	-0.12920563
80	0x3d90f1b8	0.07077354
81	0xbd6b3159	-0.05742011
82	0xbcf504db	-0.029909542
83	0xbef3a7ef	-0.4758906
84	0xbd16b92c	-0.036797687
85	0x3dba83ee	0.09107195
86	0xbd593bec	-0.05303566
87	0x3e9b3570	0.30314207
88	0x3d0b4918	0.034005255
89	0xbe99e973	-0.3006092
90	0x3d0139cf	0.03154927
91	0xbe4cbf2d	-0.19994803
92	0x3d3135a4	0.043264046
93	0xbe913856	-0.28363293
94	0xbde8bb7b	-0.11363884
95	0x3d5f6e3a	0.05454848
96	0xbd6a27ef	-0.05716699
97	0x3e1de2bb	0.15418522
98	0x3e9a14a8	0.30093884
99	0x3e9f2cc4	0.3108884
100	0xbcec971f	-0.028880654
101	0x3e5fd814	0.21859771
102	0xbc885eac	-0.016646706
103	0x3e0348bf	0.12820719
104	0x3f2be7a0	0.67150307
105	0xbe1b7465	-0.1518112
106	0xbd8aa3b2	-0.06769504
107	0xbc2885ed	-0.010285837
108	0xbd854416	-0.06507127
109	0x3ced8aa8	0.02899678
110	0x3ce88dd7	0.028387947
111	0xbe7be365	-0.24598463
112	0xbe5187c2	-0.20461944
113	0x3e3a540f	0.18196128
114	0xbdf43d2d	-0.11925731
115	0xbdc9be06	-0.09850697
116	0x3c859e20	0.016310751
117	0xbe5e91dd	-0.2173533
118	0x3dcad37c	0.09903619
119	0xbe29db03	-0.16587453
120	0xbd5349ea	-0.05158416
121	0xbf2e5815	-0.6810315
122	0x3f22307d	0.6335524
123	0xbe6fb337	-0.23408209
124	0xbecd9eb5	-0.40160146
125	0xbe99d6fa	-0.30046827
126	0xbec8ef30	-0.39244986
127	0xbe8bf19f	-0.2733278
128	0xbc4105ba	-0.0117811505
129	0xbe0ce912	-0.13760784
130	0x3e086c8c	0.13322657
131	0xbdecfba4	-0.11571434
132	0x3d9d6e8c	0.07687101
133	0x3dc3fb4e	0.09569417
134	0x3e2ce33e	0.16883561
135	0x3da9658f	0.08271324
136	0xbbc57015	-0.006025324
137	0xbe55e468	-0.20887911
138	0xbcfb7598	-0.030695722
139	0x3d1e314a	0.038621224
140	0xbe798637	-0.24367605
141	0x3c4cd269	0.012501338
142	0xbe778d2d	-0.24174948
143	0xbe113326	-0.14179668
144	0x3ebe075a	0.37114984
145	0x3de835d6	0.113383934
146	0x3dd6160a	0.10453422
147	0xbe022fd9	-0.12713565
148	0x3d9ebe8c	0.07751188
149	0x3d68c010	0.05682379
150	0xbe393539	-0.18086709
151	0x3db3ac47	0.08773094
152	0xbf68bd02	-0.90913403
153	0x3cdc1190	0.026863843
154	0x3d51a8fe	0.051186554
155	0xbbe477b3	-0.006972277
156	0x3e249874	0.16073781
157	0x3e77c94d	0.24197884
158	0x3e5b2791	0.21401812
159	0xbd84a8fb	-0.06477543
160	0x3e41a34d	0.1890995
161	0x3d882a1c	0.06648657
162	0xbdd1f196	-0.10251157
163	0x3f22b244	0.6355326
164	0x3d45497f	0.048165794
165	0x3d896662	0.06708981
166	0x3dd1602b	0.10223421
167	0xbd9c4994	-0.076312214
168	0x3c5704f8	0.013123743
169	0xbe6a9581	-0.22908594
170	0xbf1d3695	-0.6141141
171	0x3e25e1b5	0.16199382
172	0x3d34a784	0.044105068
173	0x3e6493c4	0.22321993
174	0xbe0443e0	-0.12916517
175	0xbd544446	-0.051822923
176	0xbe257167	-0.16156541
177	0xbe5a520b	-0.2132036
178	0xbeaea431	-0.34109643
179	0xbd8a934c	-0.06766376
180	0x3da7e5ee	0.081981525
181	0x3d994c45	0.074852504
182	0x3e6a352e	0.22871849
183	0xbeaeb072	-0.34118992
184	0xbe6e93f6	-0.2329863
185	0xbec4de2f	-0.38450763
186	0xbdcf8f50	-0.101347566
187	0xbdb77b8a	-0.0895911
188	0x3e755df8	0.23961627
189	0x3e38b64a	0.18038288
190	0xbc10fd0f	-0.008849396
191	0xbe0181f6	-0.12647232
192	0xbe43be26	-0.19115505
193	0x3d09c0ea	0.033631243
194	0xbf42dfd3	-0.7612278
195	0x3e2f1eaa	0.17101541
196	0x3e21bc54	0.15794498
197	0x3c895446	0.016763818
198	0x3ddb0568	0.106943905
199	0xbe5c579d	-0.21517797
200	0x3d1ea6f6	0.038733445
201	0x3c7a7a97	0.015288017
202	0x3d7f3cd4	0.06231387
203	0x3d8a419f	0.067507975
204	0x3e3a35e8	0.18184626
205	0x3cbd61af	0.023117868
206	0xbeebd6e2	-0.4606238
207	0x3e2b1678	0.1670779
208	0xbd76b49a	-0.06023083
209	0x3c38014f	0.011230781
210	0x3c4f7512	0.012662189
211	0x3ebb956f	0.36637446
212	0xbe1c41f5	-0.15259536
213	0x3d8bd393	0.06827464
214	0xbed4e299	-0.4157913
215	0x3cfe5457	0.031046076
216	0x3dded565	0.108805455
217	0xbda0a0b5	-0.078431524
218	0x3d62becd	0.055357743
219	0x3e58f9ae	0.21188995
220	0x3ded8a9f	0.115987055
221	0x3e5484c4	0.20753771
222	0xbe9c3bb1	-0.3051429
223	0xbe42821b	-0.18994944
224	0xbd3f11d6	-0.04664787
225	0xbec86a06	-0.3914339
226	0x3ebb5ae5	0.36592785
227	0xbd976a59	-0.07393331
228	0xbe39665b	-0.18105452
229	0x3df17c47	0.11791282
230	0x3df78246	0.120853946
231	0xbda650d9	-0.08120889
232	0x3d5ec6d7	0.054388847
233	0xbd842095	-0.06451527
234	0xbf1dbb7b	-0.616142
235	0x3dacad42	0.08431484
236	0x3db31af1	0.08745373
237	0x3ede0959	0.43366507
238	0x3e7536e0	0.23946714
239	0x3ce32a90	0.027730256
240	0xbd478079	-0.048706505
241	0xbec80c7e	-0.3907203
242	0x3e23436a	0.15943685
243	0x3c9cbea0	0.019133866
244	0x3d545e7f	0.05184793
245	0xbcdb8eb4	-0.026801445
246	0xbe35e8a0	-0.1776452
247	0xbd0e6e4c	-0.034773156
248	0x3df65303	0.12027552
249	0x3ba6f5b6	0.005095209
250	0xbdaf123c	-0.085484
251	0xbcb45cad	-0.022016848
252	0xbe1bf6c1	-0.15230848
253	0x3e91d85b	0.2848538
254	0x3e3c3434	0.18379289
255	0xbe6d5f3d	-0.23180862

sequential_1/dense_2/MatMul_bias f4 [128]
0	0xbc10fdf8	-0.008849613
1	0x3b8da6e1	0.004322872
2	0x3d661e8d	0.05618148
3	0x3d12f9b6	0.035882674
4	0x3d17d258	0.037065834
5	0x3d247495	0.040150244
6	0xbcaaca5b	-0.020848444
7	0x3d547735	0.051871497
8	0x3d261c8e	0.040554576
9	0xb97d144c	-0.00024135521
10	0x3d55679e	0.05210077
11	0x3d11e9e8	0.03562346
12	0x3cc1e4fb	0.023668757
13	0x3dabd1d7	0.08389633
14	0x3d1a7fcf	0.037719544
15	0x3cf28132	0.02960262
16	0x3c672c75	0.0141097205
17	0xbd01326d	-0.03154223
18	0x3cf6b096	0.0301135
19	0xbc99d6d9	-0.018779205
20	0x3ce8ebbb	0.028432718
21	0x3d148190	0.036256373
22	0x3d176c02	0.03696824
23	0x3d536cac	0.05161731
24	0x3d007bfc	0.03136824
25	0x3d0faf38	0.03507921
26	0x3d21fd74	0.039548352
27	0xbca99e54	-0.02070538
28	0x3d76c5ff	0.060247418
29	0xbcefeb2f	-0.029286949
30	0xbd4b5252	-0.049639054
31	0x3d30e64b	0.043188374
32	0x3cd0481f	0.025425015
33	0x3d364b0a	0.044505157
34	0xbcdb5806	-0.026775371
35	0x3cc8e722	0.024524275
36	0x3cd54bb0	0.026037067
37	0x3d1d545b	0.038410526
38	0x3d454344	0.048159853
39	0x3dd14ff5	0.10220329
40	0x3cec0188	0.028809324
41	0xbc899ff7	-0.01679991
42	0x3cc3a76b	0.023883542
43	0xbcd0cbdd	-0.025487835
44	0xbcc2477e	-0.02371573
45	0x3d2ea799	0.042640302
46	0x3d3ea86f	0.04654735
47	0x3d36848c	0.04456
48	0xbc4db24f	-0.012554719
49	0xbd038ad7	-0.03211483
50	0xbba63ba2	-0.0050730268
51	0xbcf324b1	-0.029680582
52	0xbc4ad5f0	-0.012380108
53	0xbccdbe71	-0.025115224
54	0x3d1420fe	0.036164276
55	0x3d448bee	0.04798501
56	0x3c9baef3	0.01900432
57	0xbd43d998	-0.047814935
58	0x3d86fea5	0.06591538
59	0xbcbb9fc0	-0.022903323
60	0x3bfea05b	0.0077705807
61	0x3d719f88	0.05899003
62	0x3c62c231	0.013840244
63	0x3d116b22	0.03550256
64	0x3bb415ef	0.0054957788
65	0x3d0ca063	0.034332644
66	0x3cc03be0	0.02346605
67	0xbcbf1a15	-0.023327867
68	0x3d93dc24	0.07219723
69	0x3d4cf0d4	0.05003436
70	0x3cede454	0.02903954
71	0x3d727ad3	0.059199166
72	0x3d95b052	0.07309021
73	0xbd874fd0	-0.0660702
74	0xbd83f986	-0.06444077
75	0x3c8f4860	0.017490566
76	0x3cee081f	0.029056607
77	0x3b9f3a7d	0.0048592673
78	0xbc9d1714	-0.019176044
79	0x3d1b6dcb	0.037946504
80	0x3cebfecd	0.028808022
81	0x3d893d4b	0.06701144
82	0x3d44dc93	0.04806192
83	0x3c5b4f9d	0.0133856805
84	0xbd0f070f	-0.03491884
85	0x3ccff6fd	0.025386328
86	0xbd0552ba	-0.032549597
87	0x3d602ac1	0.054728273
88	0x3d2037f9	0.03911588
89	0x3ca5c044	0.020233281
90	0x3d09626e	0.033541135
91	0x3cad1812	0.021129642
92	0xbc68356e	-0.014172895
93	0xbc6af037	-0.014339498
94	0xbc7f84cd	-0.015595627
95	0xbd19d6c6	-0.03755834
96	0x3d519701	0.0511694
97	0x3d0cb463	0.034351718
98	0x3d520653	0.051275562
99	0x3cc589ed	0.02411362
100	0xbd2c5d03	-0.04208089
101	0x3d203176	0.03910967
102	0xbcaa4acd	-0.02078762
103	0x3d12d795	0.035850126
104	0x3c70e460	0.014702886
105	0x3d45443f	0.048160788
106	0xbcb0ada2	-0.02156717
107	0x3d1963c2	0.037448652
108	0xbd2e857c	-0.04260777
109	0xbb9e7ec9	-0.0048368913
110	0xbdd65330	-0.104650855
111	0xbd356d43	-0.044293653
112	0x3d96220b	0.07330712
113	0x3d390e44	0.04517962
114	0xbd581e39	-0.052763198
115	0xbd624360	-0.055240035
116	0x3cbe4c2c	0.023229681
117	0x3d1f0c33	0.038829993
118	0x3bead3c4	0.0071663577
119	0xbcae9068	-0.021309093
120	0x3c2de2b2	0.01061313
121	0x3d028148	0.031861573
122	0xbb45e10c	-0.0030193953
123	0x3c6c6c57	0.014430127
124	0xbc6567e9	-0.014001825
125	0xbc681baf	-0.0141667565
126	0xbd49095d	-0.049081195
127	0xbd3a7d72	-0.04552979

sequential_1/dense_3/MatMul/ReadVariableOp/transpose f4 [64, 128]
0	0xbddca75f	-0.10774111
1	0xbd7ad41d	-0.061237443
2	0xbe6073c2	-0.21919158
3	0x3e956398	0.29177547
4	0xbe1fdb8f	-0.15611099
5	0xbd0fb9c0	-0.035089254
6	0xbe01588f	-0.12631439
7	0x3d1d603b	0.03842185
8	0xbd7392d1	-0.059466187
9	0x3e72839a	0.23683015
10	0x3e883973	0.2660633
11	0x3da2811b	0.07934781
12	0x3e9654eb	0.29361662
13	0xbea88af0	-0.329185
14	0xbd472975	-0.04862352
15	0x3d8c7845	0.06858877
16	0x3ead0a9c	0.33797157
17	0xbe1da7cc	-0.1539604
18	0xbcb79026	-0.022407603
19	0x3e8b8f06	0.27257556
20	0xbd082963	-0.033242594
21	0xbe669bad	-0.22520323
22	0x3dcb9884	0.099411994
23	0xbe4da006	-0.20080575
24	0x3e58593b	0.21127789
25	0xbde411b5	-0.1113619
26	0xbe3bbc45	-0.18333538
27	0xbe221f15	-0.1583217
28	0x3bba0b7f	0.00567764
29	0xbdfb0987	-0.122576766
30	0xbf4ae6cf	-0.79258436
31	0x3c8d5de6	0.017256688
32	0x3e8dd7fe	0.2770385
33	0x3e1af970	0.15134215
34	0x3ce6475a	0.028110195
35	0x3e224f08	0.1585046
36	0x3e91a41c	0.28445518
37	0x3e2d2be1	0.1691127
38	0xbcb489aa	-0.0220383
39	0x3e87277b	0.2639731
40	0x3d21cd3d	0.03950237
41	0x3e34ee60	0.17669058
42	0x3e4df221	0.20111896
43	0xbe07d7b4	-0.13265878
44	0xbd09066b	-0.033453386
45	0xbd7a757e	-0.061147206
46	0xbdb53f88	-0.08850008
47	0x3cab8e39	0.02094184
48	0xbef1bb48	-0.47213197
49	0xbdfd4766	-0.12367134
50	0xbe016e08	-0.1263963
51	0xbd39e74a	-0.04538659
52	0xbd0c45ab	-0.034246128
53	0x3c248c0c	0.010043155
54	0x3e52d423	0.20588736
55	0x3d4c3263	0.04985274
56	0x3df1bcf3	0.11803617
57	0xbcfe9418	-0.031076476
58	0x3e215755	0.15755971
59	0x3e22c2b2	0.15894583
60	0x3c78266d	0.01514588
61	0xbcb4ecd6	-0.022085588
62	0x3e2ccf46	0.16875944
63	0xbc829375	-0.015939454
64	0x3e12311f	0.1427655
65	0x3e5f6b98	0.21818388
66	0x3e3c7f1c	0.18407863
67	0xbe3f5c56	-0.18687567
68	0xbd6fdd41	-0.058560614
69	0xbdf50cb8	-0.119653165
70	0x3d9eea7c	0.07759568
71	0xbe1634ba	-0.14668551
72	0x3ddcd6b1	0.10783137
73	0xbed1957b	-0.40934357
74	0xbe2b5472	-0.16731432
75	0x3e6054aa	0.21907297
76	0x3ddfce1d	0.10927985
77	0xbec07b2b	-0.3759397
78	0x3d824578	0.06360906
79	0x3d973809	0.07383735
80	0x3e2fa350	0.17152143
81	0xbea465c8	-0.32108903
82	0xbe7350ac	-0.23761243
83	0x3e267a81	0.16257669
84	0xbdb1dc85	-0.08684639
85	0xbe452eea	-0.19256178
86	0xbda13d67	-0.0787304
87	0x3e1c82f0	0.15284324
88	0xbc2c9be2	-0.010535212
89	0xbd462b0e	-0.048380904
90	0x3ea505cb	0.32230982
91	0x3e37a9bb	0.17935841
92	0xbdb9181b	-0.09037801
93	0x3d725632	0.059164234
94	0x3e2d1118	0.16901052
95	0xbddeaa24	-0.108722955
96	0xbbfe0108	-0.007751588
97	0x3e68d1d0	0.22736287
98	0x3de3d79c	0.111251086
99	0x3dd019f2	0.10161199
100	0xbdc6b281	-0.09702016
101	0x3d2aa2df	0.041659232
102	0xbd25dd95	-0.04049452
103	0x3e8513bc	0.2599162
104	0xbe5c7e32	-0.21532515
105	0xbd3f2721	-0.046668176
106	0xbee9fa4e	-0.4569878
107	0xbe90ae4c	-0.28257978
108	0x3e0b495c	0.13602203
109	0x3e59423e	0.21216676
110	0x3f0c7e6a	0.5488039
111	0xbd5dc438	-0.054142207
112	0xbd8e33a5	-0.06943444
113	0xbdbc6dae	-0.09200607
114	0xbf88a713	-1.0675987
115	0x3ee51dfa	0.44749433
116	0x3dad6699	0.084668346
117	0xbdb54b5c	-0.08852264
118	0x3df92ae6	0.12166385
119	0x3e2a9b4f	0.16660808
120	0xbec9d666	-0.39421386
121	0xbe2c3c8d	-0.16819973
122	0x3f00223f	0.50052255
123	0xbf001342	-0.50029385
124	0xbe794cee	-0.24345753
125	0xbd07a42f	-0.033115562
126	0x3d0f4f30	0.03498763
127	0xbd8bb7aa	-0.068221405
128	0xbf6435e1	-0.8914471
129	0x3edcd50d	0.43131295
130	0x3e13a1b7	0.14417158
131	0xbd504f72	-0.050857015
132	0x3d990024	0.0747073
133	0xbe8c5dc7	-0.27415296
134	0xbc574eec	-0.013141375
135	0xb8dd0558	-0.000105390965
136	0x3dd4f1dc	0.103976935
137	0x3d37d4e6	0.04488077
138	0xbe9a4d41	-0.30137065
139	0x3e7ec8dd	0.24881311
140	0xbe5a926f	-0.21344922
141	0x3e456255	0.19275792
142	0x3daef3ba	0.08542581
143	0x3e2042cf	0.15650485
144	0x3ebc0536	0.36722726
145	0x3a490e8a	0.0007669708
146	0x3cdc3e33	0.026885128
147	0x3e6f65bb	0.23378651
148	0x3e9e89d3	0.30964527
149	0x3ddb8b3c	0.10719916
150	0xbdfb4508	-0.12269026
151	0xbdba44e8	-0.09095174
152	0xbb998084	-0.0046845097
153	0x3e2025ef	0.1563947
154	0x3db8f64c	0.090313524
155	0xbdbce57d	-0.09223459
156	0xbd98fec7	-0.0747047
157	0x3d64c2df	0.055849906
158	0xbf2e4d3d	-0.68086606
159	0x3e209ccb	0.15684812
160	0x3b819f3a	0.003955749
161	0x3e95d995	0.29267564
162	0x3d9be27b	0.07611557
163	0x3e7519b8	0.23935592
164	0x3d463a1c	0.04839526
165	0x3d9e87ed	0.077407695
166	0xbd3518dc	-0.04421316
167	0xbc34adf4	-0.011027802
168	0x3b0b696a	0.0021272548
169	0xbcf783fa	-0.030214299
170	0xbd921b31	-0.071340926
171	0x3bd0f4e8	0.0063768514
172	0x3e894fdf	0.2681875
173	0xbc304a6f	-0.010759934
174	0x3e02da59	0.12778606
175	0xbcaba6a9	-0.020953493
176	0xbf0c1248	-0.54715395
177	0xbd817365	-0.06320838
178	0x3bcb5e2e	0.0062062955
179	0x3dfe2301	0.1240902
180	0xbda00467	-0.0781334
181	0x3c61cbc3	0.013781491
182	0x3da715ad	0.08158431
183	0xbd8b14d5	-0.06791083
184	0x3e13a1fd	0.14417262
185	0x3dd75564	0.10514334
186	0xbe010184	-0.12598234
187	0xbdecd1c3	-0.115634464
188	0x3e51454b	0.2043659
189	0xbd8ee2ef	-0.06976878
190	0x3eac1939	0.33612993
191	0x3e21a86d	0.15786906
192	0xbd8612e6	-0.06546573
193	0xbe2e6d88	-0.1703397
194	0x3e74653c	0.23866743
195	0x3e18f840	0.1493845
196	0xbd3e22fa	-0.046420075
197	0x3e4d0913	0.20022993
198	0x3d2c92a3	0.04213203
199	0x3dbfdc12	0.09368147
200	0x3e45c13a	0.19311991
201	0xbf17fc78	-0.5936961
202	0xbd9ac02f	-0.07556187
203	0xbdae79c3	-0.08519318
204	0xbe812b61	-0.25228408
205	0xbcc4914e	-0.023995068
206	0xbda9a1a5	-0.082827844
207	0x3e0d9e34	0.13829881
208	0xbd754bb2	-0.05988664
209	0x3db469f5	0.08809272
210	0x3dc79a9c	0.09746286
211	0xbd67a6a4	-0.056555405
212	0xbdb61add	-0.088918425
213	0xbe659f96	-0.22424158
214	0x3bfc588a	0.0077009844
215	0x3e02779d	0.12740941
216	0x3e558aaf	0.20853685
217	0x3e0e0340	0.13868427
218	0x3d94cbbb	0.07265421
219	0x3e2ff452	0.17183045
220	0x3d7e39e5	0.06206693
221	0xbe2f86a7	-0.1714121
222	0x3e18f2dc	0.14936393
223	0x3f350fb0	0.7072706
224	0xbe383a1f	-0.17990921
225	0xbc9b75a6	-0.018976998
226	0x3df5f9bc	0.12010524
227	0xbc1639f4	-0.009169091
228	0xbd9f9550	-0.07792151
229	0xbc8df219	-0.017327355
230	0xbdf94927	-0.12172156
231	0xbdef5f08	-0.11688048
232	0x3d077b94	0.033076838
233	0x3e1aa717	0.15102802
234	0x3e797cd6	0.24364027
235	0x3eb8efe5	0.36120525
236	0xbd332f40	-0.043746233
237	0x3aa6be24	0.0012721461
238	0xbf075808	-0.528687
239	0xbe185fd4	-0.14880306
240	0xbd900e69	-0.070339985
241	0xbe33343e	-0.17500398
242	0xbf4c374b	-0.7977187
243	0x3dce767c	0.10081193
244	0x3e18e333	0.1493042
245	0xbd827566	-0.06370048
246	0xbb631018	-0.0034647044
247	0x3def912a	0.1169761
248	0x3eaf4873	0.34234962
249	0x3e02402a	0.12719789
250	0xbe0dc246	-0.1384364
251	0x3eb73d6a	0.35789043
252	0xbe736f51	-0.23772933
253	0x3df1a467	0.117989354
254	0xbd454f6a	-0.04817144
255	0x3cb93aa5	0.022610972

sequential_1/dense_3/MatMul_bias f4 [64]
0	0x3d318c7a	0.04334686
1	0x3d3ace99	0.045607183
2	0x3d83096e	0.06398283
3	0xbd2713ab	-0.04079024
4	0x3d6c3ca6	0.057675026
5	0xbc346d31	-0.011012361
6	0xbc38be8e	-0.0112759005
7	0x3d2efe8b	0.04272322
8	0x3d516b55	0.05112775
9	0xbd3e2815	-0.046424944
10	0xbc279a03	-0.01022959
11	0x3c39cdeb	0.011340599
12	0x3db515b4	0.0884203
13	0xbd00af06	-0.031416915
14	0x3d7c2fdf	0.06156909
15	0x3db65827	0.089035325
16	0xbd230d66	-0.0398077
17	0xbc02c804	-0.007982258
18	0xbd9eaf9e	-0.0774834
19	0xbcb86e00	-0.02251339
20	0x3d6646a1	0.0562197
21	0x3d204683	0.039129745
22	0xbd0f1de3	-0.03494061
23	0x3d0810d1	0.033219162
24	0xbd95045f	-0.07276224
25	0x3d314e5a	0.043287612
26	0x3d78bed7	0.060728874
27	0x3acc9fec	0.0015611625
28	0xbd05fd36	-0.032712184
29	0x3d0f07ba	0.034919478
30	0x3da0ed8b	0.07857808
31	0xbd3218fb	-0.043480854
32	0xbcde26dd	-0.02711814
33	0x3d152313	0.036410403
34	0xbcb4055e	-0.021975216
35	0xbc8617c1	-0.016368749
36	0x3d277a26	0.040887974
37	0x3c934fdd	0.017982418
38	0x3c9a5836	0.01884089
39	0xbbb694c5	-0.005571934
40	0x3d89de17	0.067318134
41	0x3d2813cc	0.041034505
42	0x3da9d8af	0.08293282
43	0x3cd00e4a	0.025397439
44	0x3ca8355b	0.020533254
45	0x3c821f30	0.015884012
46	0xbcc079c0	-0.023495555
47	0x3d54084c	0.051765725
48	0x3d552a2f	0.052042183
49	0x3d127ad9	0.035761688
50	0xbc422023	-0.011848482
51	0x3da9d602	0.08292772
52	0xbcd2e37c	-0.025743239
53	0x3d421903	0.047387134
54	0x3d919707	0.07108884
55	0xbcfd6363	-0.03093118
56	0xbd0dbe3c	-0.03460525
57	0x3d4acdbc	0.04951261
58	0xbca2b95e	-0.01986378
59	0x3d136f32	0.035994716
60	0x3d73e96a	0.059548773
61	0x3d87fd8a	0.066401556
62	0xbd09a02c	-0.033600017
63	0x3d8e1ab2	0.069386855

sequential_1/dense_4/MatMul/ReadVariableOp/transpose f4 [32, 64]
0	0x3d9dddca	0.077083185
1	0x3e66dd0c	0.2254526
2	0x3e1dd2fd	0.15412517
3	0x3e522c97	0.20524822
4	0x3e8ccd62	0.27500445
5	0xbcc31b2a	-0.023816664
6	0x3deceb05	0.11568264
7	0xbeb0e252	-0.3454767
8	0xbdaa4041	-0.08313037
9	0xbe7ab0b5	-0.24481471
10	0xbe00f135	-0.12592013
11	0xbe7e8b30	-0.24857783
12	0x3dabae13	0.083828114
13	0x3e1d0bba	0.15336505
14	0x3d773913	0.060357165
15	0x3dcb1ee0	0.09917998
16	0xbe0364d4	-0.12831432
17	0x3e5414f3	0.20711116
18	0xbe2e60d9	-0.17029132
19	0xbe5666fa	-0.2093772
20	0x3e563abc	0.20920843
21	0x3e932e02	0.2874604
22	0x3d86e92c	0.06587443
23	0x3e7a5ddf	0.24449871
24	0x3eebac16	0.4602973
25	0xbcfcde3a	-0.030867685
26	0x3dc4b14e	0.09604131
27	0xbd879010	-0.066192746
28	0x3e6f40d1	0.23364569
29	0xbe3995cb	-0.18123548
30	0xbe0a0b11	-0.13480784
31	0xbce2d9fe	-0.027691837
32	0xbd8c06dd	-0.068372466
33	0xbc801b2b	-0.015637955
34	0xbe1f1aa6	-0.1553751
35	0x3daeac38	0.08528942
36	0xbf19f5ab	-0.60140485
37	0x3b2d25c3	0.0026420213
38	0xbb9809e6	-0.004639852
39	0xbc1f2bc7	-0.009715027
40	0x3e8981ae	0.2685675
41	0xbe407c3b	-0.1879739
42	0xbd83c007	-0.06433111
43	0xbd4d184a	-0.050071992
44	0x3da662c6	0.08124308
45	0xbde017d5	-0.109420456
46	0xbcabb6e6	-0.020961236
47	0x3e8c8c19	0.27450636
48	0x3e881364	0.26577294
49	0x3de4bbc6	0.111686274
50	0x3e945d09	0.2897723
51	0x3ea03e4d	0.31297532
52	0xbe133be4	-0.14378315
53	0x3ebf68d3	0.37384662
54	0x3e9aa836	0.3020646
55	0xbd7dbfb2	-0.061950393
56	0xbe54e8ea	-0.20791975
57	0x3dc02c1a	0.09383412
58	0x3db96eda	0.090543464
59	0xbd86f844	-0.06590322
60	0xbe241cdc	-0.16026634
61	0x3e8dabbb	0.27670082
62	0xbd94ba22	-0.072620645
63	0xbe3587ae	-0.17727539
64	0x3e87f352	0.26552826
65	0x3ea44d85	0.32090393
66	0xbdd5bfba	-0.104369596
67	0xbf5b65d7	-0.8570227
68	0x3e8d6b6e	0.27621025
69	0x3ea81b77	0.32833454
70	0xbe76f7e0	-0.24117994
71	0x3ebc49dd	0.36775103
72	0xbe0200b1	-0.12695576
73	0x3db1cc25	0.086815156
74	0x3df60e84	0.120144874
75	0x3e5e754c	0.21724433
76	0x3e64170f	0.22274421
77	0x3e544faa	0.20733514
78	0x3e5c222e	0.21497414
79	0x3e8cdd2b	0.27512488
80	0xbe867bd9	-0.26266363
81	0xbe4147bf	-0.18875025
82	0x3e8cd88c	0.27508962
83	0xbe6783bb	-0.22608845
84	0x3e05dfd6	0.13073668
85	0x3d335b7b	0.043788414
86	0xbe6bedc5	-0.2303992
87	0x3def781d	0.11692832
88	0xbfe4ec9f	-1.7884711
89	0x3e973002	0.29528815
90	0xbe04c861	-0.12967063
91	0x3a08a146	0.000521202
92	0xbe234b07	-0.1594659
93	0xbe1b8e59	-0.1519102
94	0xbe4b88aa	-0.19876352
95	0x3d0a88b0	0.03382176
96	0xbd3bde6c	-0.045866415
97	0xbcc68da0	-0.024237454
98	0xbe55c3da	-0.20875493
99	0x3d0ba302	0.034091003
100	0xbe77c5e8	-0.24196589
101	0xbea03361	-0.312892
102	0x3dbe9e72	0.09307565
103	0x3ebb6f4f	0.3660836
104	0x3e796d84	0.24358183
105	0x3dc19774	0.094527155
106	0x3db7155f	0.08939623
107	0xbda7b1d5	-0.08188216
108	0xbeaac772	-0.3335529
109	0xbd9a6635	-0.07539026
110	0x3cdedff5	0.0272064
111	0x3c27c470	0.010239705
112	0xbe80710e	-0.25086254
113	0xbdd1bf37	-0.102415495
114	0xbec0eff4	-0.3768307
115	0x3bf30353	0.0074161678
116	0xbe798750	-0.24368024
117	0xbe5e21ed	-0.21692629
118	0x3e15cef7	0.14629732
119	0xbd049db1	-0.03237695
120	0xbe09a854	-0.13443118
121	0x3db0d198	0.08633727
122	0xbedd62f0	-0.43239546
123	0x3e92c47b	0.28665528
124	0xbe209aec	-0.15684098
125	0xbe2f9aea	-0.17148939
126	0xbdb70a30	-0.0893749
127	0x3f08f4ea	0.5349871
128	0x3d7df401	0.06200028
129	0x3e9c1177	0.30482075
130	0xbe83a53d	-0.25712004
131	0xbea7aecd	-0.3275055
132	0xbe0d64b0	-0.1380794
133	0xbd4834fd	-0.04887866
134	0xbe42751c	-0.18989986
135	0x3c5499f3	0.0129761575
136	0xbec2eca9	-0.38071182
137	0x3e41e9ec	0.1893689
138	0x3e1f1758	0.15536249
139	0xbd7a305d	-0.06108128
140	0x3dd42d85	0.10360245
141	0x3e601f17	0.2188686
142	0x3d928ca1	0.07155729
143	0x3eaea59a	0.3411072
144	0x3dc58a48	0.09645516
145	0xbe4daa80	-0.20084572
146	0xbf144057	-0.57910675
147	0xbd816841	-0.06318713
148	0xbe87418f	-0.26417205
149	0x3dee11ad	0.11624465
150	0xbcc458ab	-0.023968061
151	0x3eb3a369	0.3508561
152	0xbf16414d	-0.5869339
153	0xbe0d9b8a	-0.13828865
154	0xbe9e16fb	-0.30876908
155	0x3ec58cd1	0.38583997
156	0xbd68061c	-0.05664645
157	0x3ae589f7	0.001751243
158	0xbd89dda5	-0.067317285
159	0x3e82d99d	0.2555665
160	0xbd4d29a2	-0.050088532
161	0xbe8cdc90	-0.27512026
162	0xbc96d1d0	-0.018410593
163	0xbe664b4c	-0.22489661
164	0x3eda0621	0.425828
165	0x3e535d62	0.20641091
166	0xbc60bced	-0.013716918
167	0xbd976636	-0.07392542
168	0x3e1424f7	0.14467226
169	0x3d2a9972	0.041650243
170	0x3e3b7408	0.18305981
171	0xbeb14c72	-0.34628636
172	0xbec48b67	-0.38387606
173	0x3e74c047	0.23901473
174	0x3df17c62	0.11791302
175	0xbcffb4c4	-0.031214125
176	0xbe03778c	-0.12838572
177	0xbe3a8eb1	-0.18218495
178	0xbf2940d7	-0.6611456
179	0x3e322a80	0.17399025
180	0x3d2ddf2a	0.042449154
181	0xbd6cea27	-0.057840493
182	0x3df6a89b	0.12043878
183	0xbc836eb6	-0.016044002
184	0xbe2d1127	-0.16901074
185	0x3d95995a	0.0730464
186	0x3f065903	0.5247957
187	0x3e8e82cb	0.27834162
188	0xbe9866a7	-0.29765818
189	0xbe1f87a4	-0.15579087
190	0xbd79de60	-0.06100309
191	0x3cf3cfd5	0.029762188
192	0x3ebae680	0.36503983
193	0xbe12c364	-0.14332348
194	0xbd86d61a	-0.065838054
195	0xbf553eb3	-0.83298796
196	0x3db68077	0.089112215
197	0x3f032d9b	0.51241463
198	0xbddb4a30	-0.107075095
199	0x3e93c901	0.2886429
200	0xbd01c56a	-0.03168241
201	0x3e7375b3	0.23775367
202	0xbcca41c3	-0.02468956
203	0x3df8972d	0.121382095
204	0xbd8f169f	-0.069867365
205	0x3db2ffff	0.08740234
206	0xbe8346e5	-0.25640026
207	0xbe53840b	-0.20655839
208	0x3d66f145	0.056382436
209	0x3de23f45	0.11047224
210	0x3e461723	0.19344763
211	0xbe758a78	-0.23978603
212	0xbeb4083c	-0.35162532
213	0x3d9e5851	0.07731689
214	0x3d1b196c	0.03786604
215	0xbe04f96f	-0.12985776
216	0xbfa4e131	-1.2881223
217	0xbdc71708	-0.0972119
218	0xbc9ef12e	-0.019402113
219	0x3d65cd85	0.0561042
220	0xbe20a1e2	-0.15686753
221	0xbe2c37db	-0.16818182
222	0x3d8e2838	0.06941265
223	0xbc9022f3	-0.01759479
224	0xbeb0f7c3	-0.34564027
225	0xbddce4e3	-0.10785844
226	0xbd9cac8b	-0.076500975
227	0xbe6e0bba	-0.23246661
228	0x3ec775ae	0.3895697
229	0xbc8f043e	-0.017458078
230	0x3e187ae9	0.14890637
231	0x3e506341	0.20350362
232	0x3ce4c376	0.027925234
233	0x3e3ac4db	0.18239157
234	0x3e6cd959	0.23129787
235	0xbe5526e9	-0.20815624
236	0xbe2f22a6	-0.17103061
237	0x3e64ccaa	0.22343698
238	0xbe363795	-0.1779464
239	0xbeb0633d	-0.34450713
240	0x3d8161e2	0.06317498
241	0xbe0558ca	-0.13022152
242	0xbe1cbdde	-0.15306804
243	0x3e35629f	0.17713402
244	0xbda98359	-0.08277006
245	0xbd6d333a	-0.05791018
246	0x3dd41fe1	0.10357643
247	0xbe25a20e	-0.161751
248	0xbe24d62a	-0.16097322
249	0x3dc0770c	0.093977064
250	0x3e07c657	0.13259254
251	0xbd83ec33	-0.06441536
252	0x3db846f9	0.08997912
253	0x3df83dfc	0.121211976
254	0xbe0c4487	-0.13698016
255	0x3d983df9	0.07433695

sequential_1/dense_4/MatMul_bias f4 [32]
0	0x3dc6004d	0.09668026
1	0x3d911f48	0.070860445
2	0x3d8545f1	0.06507481
3	0x3d5944e0	0.0530442
4	0x3aecdce5	0.0018071203
5	0x3d1705c0	0.036870718
6	0x3d375ffe	0.04476928
7	0x3d432733	0.047644805
8	0x3cec8ce4	0.028875776
9	0xbd0f711b	-0.035019975
10	0x3dad3263	0.08456876
11	0x3d715390	0.058917582
12	0xbc8596ff	-0.016307352
13	0xbd0bcaed	-0.034129072
14	0x3d9a79c3	0.075427555
15	0x3cc6b503	0.024256235
16	0xbb107bf1	-0.002204653
17	0x3dc5006c	0.09619221
18	0x3d78ac80	0.060711384
19	0x3d32b6f8	0.043631524
20	0x3d9e681f	0.07734703
21	0xbcfd993f	-0.030956862
22	0xbcc6465b	-0.02420347
23	0x00000000	0.0
24	0xbd8ccf73	-0.06875505
25	0x3d99ec81	0.07515813
26	0xbc67bf5d	-0.014144746
27	0xbd5f1cba	-0.054470755
28	0x3d4d6f42	0.05015493
29	0x3c035af4	0.00801729
30	0x3d4ef208	0.050523788
31	0x3d1fe6e7	0.039038565

sequential_1/dense_5/MatMul/ReadVariableOp/transpose f4 [16, 32]
0	0xbe38e766	-0.18057021
1	0x3e8dc7f6	0.2769162
2	0x3ed3061d	0.41215602
3	0xbd6c7d2a	-0.057736553
4	0xbefeb529	-0.4974759
5	0xbdfaaa9b	-0.12239572
6	0x3eaa0fe1	0.3321524
7	0xbd5ccbdf	-0.053905364
8	0x3dfa94c4	0.12235406
9	0xbeb2489f	-0.3482103
10	0xbe53c38d	-0.20680065
11	0xbe824f1b	-0.25450978
12	0x3d6c82b9	0.057741854
13	0x3ea609b4	0.32429278
14	0xbd58dc57	-0.052944507
15	0x3e788ff5	0.24273665
16	0x3e95e270	0.2927432
17	0x3d4da49f	0.050205823
18	0xbde835b2	-0.113383666
19	0x3edd632c	0.43239725
20	0x3eae28ec	0.34015596
21	0x3ea1b6c3	0.3158475
22	0xbdb62199	-0.08893127
23	0x3e079570	0.132406
24	0xbf070448	-0.5274091
25	0x3e6910d4	0.22760326
26	0x3f0dae9d	0.55344564
27	0x3e92a300	0.28639984
28	0xbb2f1b53	-0.0026719167
29	0xbe0a8b8c	-0.13529795
30	0x3e8487a8	0.25884748
31	0x3d40224f	0.04690772
32	0xbe8d2565	-0.27567592
33	0xbdb4557f	-0.088053696
34	0xbd8d89b9	-0.06911034
35	0x3f09d1df	0.5383586
36	0x3d40cff6	0.047073327
37	0x3e8753f0	0.26431227
38	0xbdddf65b	-0.10838004
39	0xbd1cbdab	-0.03826682
40	0xbf0fb51b	-0.5613572
41	0x3deb82e4	0.11499575
42	0x3e31855f	0.17336033
43	0x3e81d77d	0.25359717
44	0x3b3211e3	0.0027171306
45	0xbe929731	-0.28630975
46	0x3ec1cb64	0.37850487
47	0x3ee62b9f	0.44955155
48	0x3ebb37bc	0.3656596
49	0x3eb00d46	0.34385127
50	0xbf07b1a8	-0.53005457
51	0x3e1db3ce	0.15400621
52	0x3e096393	0.13416891
53	0x3e7f507d	0.24933048
54	0xbd86a724	-0.06574848
55	0x3e54f87a	0.20797911
56	0xbfc6c325	-1.5528303
57	0xbf0abc0d	-0.5419319
58	0x3f0b0d61	0.5431729
59	0x3e81b71e	0.2533502
60	0xbeadf84c	-0.33978498
61	0xbdc99f2f	-0.09844815
62	0xbddc5c45	-0.107597865
63	0x3e63468c	0.2219488
64	0xbc8a12c4	-0.016854651
65	0x3cd601d0	0.026123911
66	0x3f0cca7d	0.5499647
67	0x3deaa58b	0.11457356
68	0x3e6ed8ab	0.2332484
69	0xbe359e6b	-0.17736213
70	0xbf6212a3	-0.8830969
71	0xbdbdd958	-0.09269971
72	0xbea9332f	-0.33046862
73	0x3dd8f174	0.105929285
74	0x3d3cf520	0.046132207
75	0xbf113524	-0.5672171
76	0x3b9c2823	0.004765527
77	0xbe36e2b8	-0.17859924
78	0xbeae98c4	-0.34100926
79	0xbf9d13c1	-1.2271653
80	0x3e9284c1	0.28616908
81	0x3d9e3a53	0.07725968
82	0xbdcab4f9	-0.09897799
83	0x3e38f0dc	0.1806063
84	0x3cd371fc	0.025811188
85	0x3cab2890	0.020893365
86	0x3d09300e	0.033493094
87	0xbc8f8fb0	-0.01752457
88	0xbf096a30	-0.53677654
89	0xbf20a5fa	-0.6275326
90	0xbebc6fea	-0.36804134
91	0xbea4951f	-0.3214502
92	0x3d6202ea	0.05517856
93	0xbd4e895f	-0.050423976
94	0xbe6b1352	-0.22956589
95	0x3edaaae2	0.42708498
96	0x3e99b92b	0.30024084
97	0xbf92308d	-1.1421067
98	0x3daaa122	0.08331515
99	0xbe4217da	-0.18954411
100	0x3e6da6af	0.23208116
101	0x3c395bad	0.011313361
102	0x3e7d9014	0.24761993
103	0x3edc06dc	0.42973983
104	0xbe4d9b15	-0.2007869
105	0x3f2c4e5f	0.67307085
106	0xbed65683	-0.41862878
107	0x3dcbeb02	0.099569336
108	0xbd27be8d	-0.040953208
109	0x3e79a128	0.24377882
110	0xbe7f5967	-0.24936448
111	0x3e6fbc99	0.23411788
112	0xbc27d218	-0.010242961
113	0xbe948c6e	-0.2901339
114	0x3e17812e	0.14795372
115	0x3f2b4e66	0.669165
116	0xbf31e8dc	-0.6949594
117	0x3dc4596d	0.09587369
118	0xbd8af244	-0.0678449
119	0x3cfa7ba0	0.030576527
120	0x3f790a4e	0.9728135
121	0xbf14e6ca	-0.58164656
122	0x3dcce55d	0.10004685
123	0x3e8f5573	0.2799488
124	0xbe10e2aa	-0.14148965
125	0xbcf9bea4	-0.030486412
126	0xbdfdf3fb	-0.12400051
127	0x3f1717bb	0.59020585
128	0x3e65c717	0.22439228
129	0xbe776603	-0.24160008
130	0xbe3343e0	-0.17506361
131	0x3cedbc43	0.029020434
132	0xbd863957	-0.065539055
133	0x3edddaba	0.43330938
134	0x3d9812ff	0.07425498
135	0x3e866960	0.2625227
136	0xbe7277cc	-0.23678511
137	0xbf90454c	-1.1271148
138	0x3ec97483	0.39346704
139	0xbdc177d5	-0.09446684
140	0xbc11d46c	-0.008900743
141	0x3e9bd624	0.30436814
142	0xbceaf509	-0.028681295
143	0xbc070ff4	-0.00824355
144	0xbe153343	-0.14570336
145	0xbe66f854	-0.22555667
146	0xbecc1dcb	-0.3986648
147	0x3e8c7ebc	0.2744044
148	0xbdb798b4	-0.08964673
149	0xbe9d2e19	-0.30699232
150	0x3e365a25	0.17807825
151	0x3de766d8	0.11298913
152	0xbef51089	-0.47864178
153	0x3ea00972	0.31257206
154	0xbeff5f21	-0.49877265
155	0xbe94cdea	-0.2906335
156	0x3e5e1de3	0.21691088
157	0xbea7dfa5	-0.32787815
158	0xbe1d50f6	-0.15362915
159	0xbe988258	-0.29786944
160	0x3e522ed1	0.20525672
161	0xbe138428	-0.14405882
162	0x3ed6d461	0.41958907
163	0x3edadcb5	0.4274651
164	0xbece3a7e	-0.40279
165	0xbd0c654d	-0.034276295
166	0x3dc1e8d0	0.094682336
167	0xbed3013b	-0.41211876
168	0x3f8f31ff	1.1187133
169	0xbed8dd59	-0.42356375
170	0x3e0d7d85	0.13817413
171	0xbf02ae55	-0.5104726
172	0xbe52ec44	-0.2059794
173	0xbc7692b0	-0.015049621
174	0xbe9b07b4	-0.30279315
175	0x3da73a1c	0.0816538
176	0x3f1cbc55	0.6122487
177	0xbe39ada0	-0.18132639
178	0xbf153806	-0.5828861
179	0x3f0819b4	0.5316422
180	0x3f0303f0	0.51177883
181	0x3e16a9d1	0.14713217
182	0xbd5f688d	-0.054543067
183	0xbdc01ca4	-0.09380463
184	0xbf5a262f	-0.85214514
185	0xbe910034	-0.28320467
186	0x3e62fde1	0.2216716
187	0x3e1d9449	0.15388598
188	0xbd391fcf	-0.04519635
189	0x3d0acd0f	0.033886965
190	0xbf2ce060	-0.6752987
191	0x3c1c4125	0.009537016
192	0x3eccde50	0.4001336
193	0xbe21e881	-0.1581135
194	0x3e7dd5c4	0.24788576
195	0x3e210aed	0.15726824
196	0x3e0ee4c2	0.13954452
197	0xbeef480b	-0.46734652
198	0xbca31ba5	-0.019910643
199	0x3da9a709	0.082838126
200	0x3f7e4757	0.99327606
201	0x3e2a3d21	0.16624881
202	0x3e91a39b	0.28445134
203	0x3e4a8bbc	0.19779867
204	0xbe34fcf8	-0.17674625
205	0xbe406b30	-0.18790889
206	0xbd8ff9ba	-0.070300534
207	0xbe9f2832	-0.31085354
208	0x3e81a150	0.25318384
209	0x3d8ceea0	0.068814516
210	0x3f0119a6	0.5042976
211	0x3e95a4e4	0.29227364
212	0xbf1c8ace	-0.611493
213	0x3e59ab2e	0.21256706
214	0xbddf65ba	-0.10908075
215	0xbe4c70ed	-0.19964953
216	0xbdc96b91	-0.0983497
217	0x3f471b46	0.7777599
218	0x3eb63e65	0.35594478
219	0x3e936cc1	0.2879391
220	0x3e37309e	0.1788964
221	0xbf03a23c	-0.51419425
222	0x3eb93d22	0.36179453
223	0x3e247cae	0.16063187
224	0x3ee928f2	0.4553905
225	0x3e414971	0.18875672
226	0x3ef5c010	0.47998095
227	0xbec58aac	-0.3858236
228	0x3e0e9942	0.1392565
229	0x3d998f50	0.07498038
230	0x3d8769da	0.066119865
231	0x3de64845	0.11244253
232	0xbc1fb487	-0.009747631
233	0x3b6de84c	0.003630179
234	0x3ee381e0	0.44435024
235	0x3e98d234	0.29847872
236	0xbea69478	-0.32535148
237	0xbe421b08	-0.18955624
238	0x3e92e2d4	0.2868868
239	0xbebab8fa	-0.3646925
240	0xbece3441	-0.40274242
241	0x3e0ea38f	0.1392958
242	0x3ee67695	0.45012346
243	0x3e9adadf	0.3024511
244	0x3eb04315	0.3442618
245	0x3ea7dfd7	0.32787964
246	0xbe796563	-0.24355082
247	0x3da4f0ec	0.08053765
248	0x3f547783	0.8299486
249	0xbdbc8125	-0.0920432
250	0xbeb62c73	-0.35580787
251	0xbf1e0551	-0.6172686
252	0x3ed0948d	0.40738335
253	0x3e815695	0.2526137
254	0x3e294a76	0.16532311
255	0x3ea3eb6b	0.32015547

sequential_1/dense_5/MatMul_bias f4 [16]
0	0x3c3535f3	0.011060226
1	0x3e3d5f81	0.18493463
2	0xbd378f53	-0.04481442
3	0x3dc2a225	0.09503583
4	0x3d98f7ec	0.07469162
5	0x3d0973a0	0.033557534
6	0xbd890d8c	-0.06692037
7	0x3e110cf1	0.14165093
8	0x3cd49175	0.025948266
9	0x3da20172	0.07910432
10	0xbd606ad5	-0.054789383
11	0x3c9cd811	0.019145997
12	0xbb96dc1a	-0.004603875
13	0x3bbf4301	0.005836845
14	0xbc825275	-0.01590846
15	0x3ddee1cf	0.10882913

sequential_1/dense_6/MatMul/ReadVariableOp/transpose f4 [5, 16]
0	0xbf81486d	-1.0100228
1	0xbf6a55e3	-0.915373
2	0xbf38f667	-0.7225098
3	0x3eecab49	0.4622443
4	0xbe079972	-0.13242128
5	0xbf640d3e	-0.89082706
6	0x3e0dd320	0.13850069
7	0x3eeefad8	0.46675754
8	0xbf701142	-0.93776333
9	0xbe960f61	-0.29308608
10	0xbe3dd008	-0.18536389
11	0x3e978542	0.29593855
12	0xbf2c7b03	-0.673752
13	0xbd1eb9f1	-0.038751546
14	0xbf74c9bd	-0.9562033
15	0x3f08b5b9	0.53402287
16	0x3e83a019	0.25708082
17	0x3eac1559	0.33610037
18	0xbf525374	-0.8215859
19	0xbe58e0e6	-0.21179542
20	0x3f145c78	0.57953596
21	0x3f37c524	0.7178519
22	0x3dfd9c3c	0.12383315
23	0xbe192423	-0.14955191
24	0x3ea5a3e8	0.32351613
25	0xbec0a00a	-0.376221
26	0x3d7b2967	0.06131878
27	0xbf54c72f	-0.8311643
28	0xbe3c7ae0	-0.18406248
29	0xbf334988	-0.70034075
30	0xbe6e291c	-0.2325787
31	0x3f2c067d	0.671974
32	0xbeb35186	-0.35023135
33	0x3dd969a6	0.10615854
34	0x3eeab212	0.45838982
35	0x3f4c8fe8	0.79907084
36	0x3e921581	0.2853203
37	0xbed2bfed	-0.41162053
38	0xbf4ad437	-0.79230064
39	0x3de81787	0.113326125
40	0xbf070b23	-0.5275137
41	0x3c6b6e79	0.0143696
42	0xbd0e2ca0	-0.034710526
43	0x3dcdfc38	0.100578725
44	0x3f2365d9	0.6382728
45	0xbdfecc3c	-0.12441298
46	0x3f82e71d	1.022678
47	0xbf36401b	-0.7119157
48	0x3e8badf0	0.2728114
49	0x3ea93723	0.33049878
50	0x3e009a25	0.12558801
51	0xbf46bfc6	-0.77636373
52	0xbf0de429	-0.5542627
53	0x3edfc489	0.43704632
54	0x3ede40cb	0.43408808
55	0xbe85f337	-0.2616212
56	0xbdf4ebee	-0.119590625
57	0x3e8c8f89	0.2745326
58	0xbd6ac99a	-0.05732117
59	0xbea8e369	-0.32986
60	0xbf599ca9	-0.8500467
61	0xbedf80f9	-0.43653086
62	0x3f1a9e18	0.6039748
63	0xbe2cd505	-0.16878136
64	0xbee4f9fc	-0.44721973
65	0x3f257a25	0.646395
66	0x3fb21dd7	1.3915356
67	0xbe5af836	-0.21383747
68	0xbf036153	-0.5132038
69	0xbdafa034	-0.08575478
70	0xbf0cb74f	-0.54967207
71	0xbe432c85	-0.19059952
72	0x3f068297	0.52543014
73	0xbeefe078	-0.46850944
74	0x3ecbf7cf	0.398375
75	0x3f4070e8	0.7517228
76	0x3e6a803e	0.22900483
77	0x3f5aba02	0.85440075
78	0xbf354515	-0.70808536
79	0x3cda53f7	0.026651366

sequential_1/dense_6/MatMul_bias f4 [5]
0	0xbaab19e8	-0.0013053985
1	0xbda76d9d	-0.08175204
2	0x3debb565	0.11509208
3	0xbb71efd4	-0.003691663
4	0x3c8440b2	0.01614413
