models/tflite_quant_model.tflite (tflite, 55552 bytes, 12 tensors)

sequential_1/dense_1/MatMul/ReadVariableOp/transpose i1 [256, 21] scale=0.034258626 zero_point=0
0	0xf9	-0.23981038
1	0xfe	-0.06851725
2	0x03	0.10277588
3	0xfe	-0.06851725
4	0x02	0.06851725
5	0xf7	-0.30832765
6	0x04	0.1370345
7	0x03	0.10277588
8	0x04	0.1370345
9	0x07	0.23981038
10	0x09	0.30832765
11	0x09	0.30832765
12	0x13	0.6509139
13	0x04	0.1370345
14	0x03	0.10277588
15	0xf9	-0.23981038
16	0xee	-0.6166553
17	0xf0	-0.548138
18	0x0a	0.34258628
19	0x01	0.034258626
20	0x04	0.1370345
21	0xfa	-0.20555176
22	0xf7	-0.30832765
23	0x01	0.034258626
24	0xf6	-0.34258628
25	0x06	0.20555176
26	0xfd	-0.10277588
27	0x06	0.20555176
28	0x00	0.0
29	0x12	0.6166553
30	0xe5	-0.9249829
31	0x15	0.71943116
32	0x00	0.0
33	0xfd	-0.10277588
34	0x08	0.274069
35	0xfe	-0.06851725
36	0x02	0.06851725
37	0x07	0.23981038
38	0xf9	-0.23981038
39	0xf8	-0.274069
40	0x00	0.0
41	0x07	0.23981038
42	0xff	-0.034258626
43	0xff	-0.034258626
44	0x00	0.0
45	0xfe	-0.06851725
46	0x02	0.06851725
47	0x02	0.06851725
48	0x02	0.06851725
49	0x03	0.10277588
50	0xfb	-0.17129314
51	0x02	0.06851725
52	0xfd	-0.10277588
53	0xf7	-0.30832765
54	0xfb	-0.17129314
55	0xf9	-0.23981038
56	0x02	0.06851725
57	0x03	0.10277588
58	0xfe	-0.06851725
59	0x04	0.1370345
60	0xf7	-0.30832765
61	0xfd	-0.10277588
62	0xf0	-0.548138
63	0x05	0.17129314
64	0xfb	-0.17129314
65	0x01	0.034258626
66	0xa1	-3.2545695
67	0xff	-0.034258626
68	0x01	0.034258626
69	0x03	0.10277588
70	0x04	0.1370345
71	0xfc	-0.1370345
72	0x04	0.1370345
73	0x06	0.20555176
74	0x02	0.06851725
75	0xfd	-0.10277588
76	0x05	0.17129314
77	0x04	0.1370345
78	0x02	0.06851725
79	0x05	0.17129314
80	0x0b	0.37684488
81	0x00	0.0
82	0xfc	-0.1370345
83	0xf2	-0.47962075
84	0x04	0.1370345
85	0x02	0.06851725
86	0x03	0.10277588
87	0x00	0.0
88	0xf8	-0.274069
89	0x02	0.06851725
90	0x02	0.06851725
91	0x03	0.10277588
92	0x0b	0.37684488
93	0xf6	-0.34258628
94	0x03	0.10277588
95	0xfe	-0.06851725
96	0x01	0.034258626
97	0x19	0.85646564
98	0x00	0.0
99	0x00	0.0
100	0xff	-0.034258626
101	0xff	-0.034258626
102	0xfc	-0.1370345
103	0x01	0.034258626
104	0x01	0.034258626
105	0x02	0.06851725
106	0xff	-0.034258626
107	0x01	0.034258626
108	0x00	0.0
109	0xf9	-0.23981038
110	0x04	0.1370345
111	0xfc	-0.1370345
112	0x02	0.06851725
113	0xfa	-0.20555176
114	0x05	0.17129314
115	0x09	0.30832765
116	0x03	0.10277588
117	0x13	0.6509139
118	0xf6	-0.34258628
119	0xff	-0.034258626
120	0x01	0.034258626
121	0xf6	-0.34258628
122	0x02	0.06851725
123	0xff	-0.034258626
124	0xfc	-0.1370345
125	0xf3	-0.44536215
126	0x03	0.10277588
127	0xfe	-0.06851725
128	0xfc	-0.1370345
129	0xfd	-0.10277588
130	0xfe	-0.06851725
131	0x00	0.0
132	0x00	0.0
133	0x02	0.06851725
134	0xfc	-0.1370345
135	0x01	0.034258626
136	0xfd	-0.10277588
137	0xff	-0.034258626
138	0xfd	-0.10277588
139	0x03	0.10277588
140	0xfc	-0.1370345
141	0xff	-0.034258626
142	0xfd	-0.10277588
143	0xfe	-0.06851725
144	0x03	0.10277588
145	0x02	0.06851725
146	0xfe	-0.06851725
147	0x01	0.034258626
148	0xfe	-0.06851725
149	0x04	0.1370345
150	0x06	0.20555176
151	0x06	0.20555176
152	0xfd	-0.10277588
153	0xfa	-0.20555176
154	0x01	0.034258626
155	0xfc	-0.1370345
156	0x03	0.10277588
157	0xfc	-0.1370345
158	0x03	0.10277588
159	0xff	-0.034258626
160	0x00	0.0
161	0xfb	-0.17129314
162	0x02	0.06851725
163	0xf8	-0.274069
164	0xff	-0.034258626
165	0x03	0.10277588
166	0x02	0.06851725
167	0x0f	0.5138794
168	0x0b	0.37684488
169	0xfd	-0.10277588
170	0xff	-0.034258626
171	0x04	0.1370345
172	0x06	0.20555176
173	0xfd	-0.10277588
174	0xfb	-0.17129314
175	0xfe	-0.06851725
176	0x04	0.1370345
177	0x03	0.10277588
178	0x04	0.1370345
179	0xc5	-2.021259
180	0x08	0.274069
181	0x05	0.17129314
182	0x05	0.17129314
183	0x00	0.0
184	0x07	0.23981038
185	0x04	0.1370345
186	0x01	0.034258626
187	0x03	0.10277588
188	0x11	0.5823966
189	0xfc	-0.1370345
190	0x00	0.0
191	0x00	0.0
192	0x03	0.10277588
193	0xfc	-0.1370345
194	0x04	0.1370345
195	0xfd	-0.10277588
196	0x03	0.10277588
197	0x05	0.17129314
198	0xff	-0.034258626
199	0x0c	0.41110352
200	0xfa	-0.20555176
201	0x0c	0.41110352
202	0xfb	-0.17129314
203	0xfc	-0.1370345
204	0x00	0.0
205	0xfa	-0.20555176
206	0xf8	-0.274069
207	0xfe	-0.06851725
208	0x03	0.10277588
209	0xe4	-0.9592415
210	0xfd	-0.10277588
211	0xfd	-0.10277588
212	0x05	0.17129314
213	0x04	0.1370345
214	0xff	-0.034258626
215	0xff	-0.034258626
216	0x00	0.0
217	0xfc	-0.1370345
218	0xef	-0.5823966
219	0x04	0.1370345
220	0xfe	-0.06851725
221	0xff	-0.034258626
222	0x05	0.17129314
223	0xf8	-0.274069
224	0xff	-0.034258626
225	0x01	0.034258626
226	0x02	0.06851725
227	0xf8	-0.274069
228	0x00	0.0
229	0xfe	-0.06851725
230	0x0e	0.47962075
231	0xfd	-0.10277588
232	0xfd	-0.10277588
233	0xfc	-0.1370345
234	0x03	0.10277588
235	0xfc	-0.1370345
236	0xfe	-0.06851725
237	0xff	-0.034258626
238	0xff	-0.034258626
239	0x04	0.1370345
240	0x03	0.10277588
241	0x01	0.034258626
242	0x02	0.06851725
243	0xfd	-0.10277588
244	0x00	0.0
245	0x02	0.06851725
246	0x02	0.06851725
247	0xff	-0.034258626
248	0x03	0.10277588
249	0x03	0.10277588
250	0xfd	-0.10277588
251	0xff	-0.034258626
252	0x07	0.23981038
253	0x00	0.0
254	0xfb	-0.17129314
255	0xf8	-0.274069

sequential_1/dense_1/MatMul_bias f4 [256]
0	0x3b60a077	0.0034275332
1	0x3d41eac4	0.04734303
2	0xbd2a9410	-0.04164511
3	0x3d11a4f5	0.035557706
4	0xbc135e64	-0.008994672
5	0x3aece1d8	0.0018072678
6	0xbc1a1516	-0.009404441
7	0x3c290244	0.010315482
8	0x3bae37ba	0.0053167017
9	0x3c1ad6ed	0.009450656
10	0x3d363eaf	0.044493373
11	0xbc5b6548	-0.013390847
12	0xbd2f841a	-0.04285059
13	0xbcdc6885	-0.026905308
14	0x3ca532f2	0.020165894
15	0x3c68495c	0.0141776465
16	0xbd017720	-0.031607747
17	0x3ce1cfb7	0.027564866
18	0x3b67cba8	0.0035369191
19	0x3c80f09b	0.01573973
20	0x3d1810a6	0.037125252
21	0xbd9c78a6	-0.07640199
22	0x3d4d48a1	0.050118092
23	0x3ba85018	0.005136501
24	0x3ce7008f	0.028198509
25	0xba7227ec	-0.0009237516
26	0xbc54f343	-0.012997451
27	0x3c2db6ab	0.0106026335
28	0x3c94f55f	0.018183408
29	0xbbdbdb08	-0.00670946
30	0x3c2d1f72	0.010566579
31	0x3d2d8dd9	0.042371605
32	0x3be01b97	0.0068392265
33	0xbc4bc946	-0.012438124
34	0xbbe03d87	-0.006843272
35	0x3a3e8675	0.00072679605
36	0x3cf2be03	0.02963162
37	0xbc977a4e	-0.018490937
38	0xbcf477c4	-0.029842265
39	0xbce8ef9d	-0.028434569
40	0x3c4ca82c	0.012491267
41	0x3c932f41	0.017966868
42	0xbdb216a4	-0.086957246
43	0x3d0dca11	0.034616534
44	0x3d8ccf19	0.06875438
45	0x35d6b600	1.5997211e-06
46	0xbceb075f	-0.028690038
47	0x3c971cae	0.018446293
48	0x3c003cdc	0.00782701
49	0x3b8eca51	0.004357614
50	0xbd696ea4	-0.05699028
51	0x3c1791f9	0.009251111
52	0x00000000	0.0
53	0x3c54db82	0.012991788
54	0xbd10ad37	-0.03532144
55	0x00000000	0.0
56	0x3a2c58fa	0.0006574538
57	0xbd193479	-0.037403557
58	0xbcd7b064	-0.026329227
59	0x3ba06bda	0.0048956694
60	0xbcdba765	-0.026813218
61	0x3c4bce34	0.012439299
62	0xbc29b188	-0.010357268
63	0xbc3750a4	-0.01118866
64	0xbbc7154a	-0.006075536
65	0x00000000	0.0
66	0xbbaa6a3e	-0.0052006533
67	0x3d25402c	0.040344402
68	0x38d908a5	0.000103489765
69	0x00000000	0.0
70	0xbd95d5a6	-0.07316141
71	0xbcbbe82f	-0.022937862
72	0x3cb1329f	0.021630583
73	0xbc026285	-0.007958059
74	0xbc5ba16c	-0.013405185
75	0x3d14058a	0.036138095
76	0x3d09b77f	0.03362226
77	0xbd470498	-0.048588365
78	0x3cd83347	0.026391638
79	0x3cdc3687	0.02688147
80	0xbc5bbf86	-0.013412362
81	0xbc47ff2d	-0.012206835
82	0xbd904c2f	-0.07045781
83	0x3d76fa16	0.060297094
84	0xbc927a05	-0.01788045
85	0x3d31f9f5	0.04345127
86	0xbd0ab739	-0.03386614
87	0x3c55d3ba	0.013050968
88	0xbb73ae8b	-0.0037182893
89	0x3c34b22c	0.011028808
90	0x3ca87498	0.020563409
91	0xbacd6b2e	-0.0015672201
92	0x3a14e95f	0.0005680527
93	0xbb62d418	-0.003461128
94	0x3ca2862a	0.019839365
95	0xbba1af54	-0.004934231
96	0x3cacdfef	0.021102874
97	0xbce0dfdd	-0.027450496
98	0x3c5c10fe	0.013431786
99	0x3cd65666	0.026164245
100	0xbc39b2b3	-0.011334109
101	0xbb7c4c56	-0.0038497648
102	0xbd52450b	-0.051335376
103	0x3cfb6da7	0.030691935
104	0x3be9adc0	0.0071313083
105	0x3d2b1f4f	0.041777905
106	0x3cd0f01a	0.025505114
107	0xbc980829	-0.018558579
108	0xbd898205	-0.067142524
109	0xbca6698e	-0.020314004
110	0x3bcfd8c0	0.0063429773
111	0xbcf957d7	-0.030437393
112	0xbd021b87	-0.031764533
113	0xbcc35777	-0.023845417
114	0xbda58fb3	-0.08084049
115	0x3cb89ebb	0.022536626
116	0x3d101037	0.035171714
117	0x3c34b42c	0.011029284
118	0xbbf7da3a	-0.0075638564
119	0x3c66b3f5	0.014080991
120	0x3c36f6cb	0.0111672385
121	0x3cdb49ce	0.026768591
122	0x3d8f78ac	0.07005438
123	0x3bc37665	0.0059650415
124	0x3ca9de9c	0.020736031
125	0x3bbd04dc	0.0057684015
126	0x3cf25aa0	0.029584229
127	0xbcea8b97	-0.028631015
128	0xbcdc7707	-0.026912225
129	0x3c92af75	0.01790593
130	0x3d1d1729	0.038352165
131	0x3d1407cd	0.036140252
132	0xbbf84c28	-0.007577438
133	0xbbfcae5a	-0.007711214
134	0xbb171a1b	-0.0023056332
135	0xb957e8d7	-0.00020590737
136	0xbc9225f3	-0.017840361
137	0xbd0b660a	-0.03403286
138	0xbd624012	-0.055236883
139	0x3c2d902c	0.010593455
140	0xbc8e8971	-0.017399522
141	0x3ad4a14a	0.0016222384
142	0xbcd3d533	-0.025858497
143	0x3b946cf4	0.00452959
144	0xbb78f997	-0.0037990564
145	0x3d204562	0.03912867
146	0x3c7915b2	0.0152029265
147	0x3cfcbe4e	0.030852463
148	0x3bfa8cbe	0.0076461723
149	0xbbfc8f09	-0.007707481
150	0x3d0fe7d9	0.035133217
151	0x3c9e6377	0.019334538
152	0x3cf248d2	0.029575739
153	0xbb34068e	-0.0027469727
154	0x3b65da85	0.0035072875
155	0xbd4583c2	-0.048221357
156	0x3d7671db	0.060167175
157	0xbc2dfa57	-0.010618768
158	0x3c70ae49	0.01468999
159	0xbc4aa375	-0.012368073
160	0x3d8efc84	0.06981757
161	0xbd61a49c	-0.055088624
162	0xbcf5e6e1	-0.030017318
163	0xbca62fb3	-0.020286417
164	0xbd851350	-0.06497824
165	0xbbfee4a7	-0.0077787223
166	0x3ccb30e0	0.024803579
167	0x3baab36e	0.005209378
168	0x3d06c20a	0.032899894
169	0xbcc3af6b	-0.023887357
170	0xbd919774	-0.071089655
171	0x3ccb26ac	0.024798714
172	0x3b630fc9	0.003464686
173	0xbd3fc5ac	-0.046819374
174	0xbc1cb9e3	-0.009565803
175	0xbd166f48	-0.03672722
176	0xbd0e54ea	-0.03474895
177	0x3d1f0e79	0.03883216
178	0xbc45652d	-0.012048048
179	0x3add0d81	0.0016864986
180	0x3c2d9b2a	0.010596076
181	0xbd22e040	-0.039764643
182	0xbd21f990	-0.039544642
183	0x3c60c08a	0.01371778
184	0xbbb3e930	-0.0054904446
185	0xbc0dd570	-0.0086568445
186	0xbcdce98e	-0.026966836
187	0x3a3cb3ed	0.0007198442
188	0xbcdfd4de	-0.027323183
189	0x3c88f4a1	0.01671821
190	0xbb4d7f1f	-0.0031356288
191	0x3d1d5ca4	0.038418427
192	0x393b3de4	0.00017856766
193	0xb8543518	-5.0594186e-05
194	0x3d33c118	0.04388532
195	0xbd20698a	-0.03916315
196	0x3d65a252	0.056063004
197	0xbc8e5f2a	-0.017379362
198	0x00000000	0.0
199	0xbb9dfbad	-0.004821262
200	0x3d005617	0.0313321
201	0xbd1d6b49	-0.038432393
202	0xbccbcc1b	-0.024877599
203	0xbc73713c	-0.01485854
204	0xbc711efb	-0.014716859
205	0xbc34bfa0	-0.011032015
206	0x3d1abb44	0.037776247
207	0xbd2a4ff7	-0.041580167
208	0x3d053e73	0.03253026
209	0xbcbcec94	-0.023062028
210	0x3d6e28da	0.058144428
211	0x3d32b6c8	0.043631345
212	0xbc290901	-0.010317088
213	0xbcc036d0	-0.023463637
214	0x3db5f4f5	0.088846125
215	0xbd3efcc1	-0.046627764
216	0xbc1000f0	-0.008789286
217	0xbce55b3b	-0.027997604
218	0xbce595fa	-0.028025616
219	0x3ca9cb62	0.020726863
220	0xbd15ef84	-0.036605373
221	0x3ca41680	0.02003026
222	0xbbb2180e	-0.0054349964
223	0xba27db8a	-0.00064032583
224	0x3cd57918	0.026058719
225	0x3c9cfa97	0.01916246
226	0x3c91098b	0.017704746
227	0x3d0534b2	0.032520957
228	0x3cf4acdd	0.029867584
229	0xbcba2a6d	-0.022725308
230	0xbc227675	-0.009915938
231	0xbcc168e9	-0.023609595
232	0xbcd14672	-0.025546286
233	0x3b711895	0.0036788334
234	0x3b93fcf2	0.0045162374
235	0x3c62fd81	0.013854385
236	0x3baf6b1a	0.0053533437
237	0x3d58b929	0.052910957
238	0xba0aa1af	-0.0005288375
239	0xbd3aa2b9	-0.04556534
240	0xbcac922f	-0.0210658
241	0xbd589515	-0.05287655
242	0xbcb9e05a	-0.022689987
243	0x3c1f2443	0.009713235
244	0xbd1d5a6e	-0.03841632
245	0xbcf47a76	-0.02984355
246	0x3ca6cbad	0.020360792
247	0x3c54d213	0.012989539
248	0xbc18e8b3	-0.009332824
249	0x3c960344	0.018312104
250	0xbb85c1e8	-0.0040819533
251	0x3cd80f46	0.02637447
252	0x3ad7ee55	0.0016474227
253	0xbaa6ce71	-0.0012726319
254	0xbc05e7b1	-0.008172915
255	0x3d1fd088	0.03901723

sequential_1/dense_2/MatMul/ReadVariableOp/transpose i1 [128, 256] scale=0.015615862 zero_point=0
0	0xe0	-0.49970758
1	0xe8	-0.37478068
2	0xfd	-0.046847586
3	0x01	0.015615862
4	0x02	0.031231724
5	0xfb	-0.07807931
6	0x05	0.07807931
7	0x0c	0.18739034
8	0xf1	-0.23423792
9	0xf0	-0.24985379
10	0x0f	0.23423792
11	0xf9	-0.10931103
12	0x0c	0.18739034
13	0x09	0.14054276
14	0xef	-0.26546964
15	0xfe	-0.031231724
16	0xfb	-0.07807931
17	0xfd	-0.046847586
18	0x0b	0.17177448
19	0x09	0.14054276
20	0xdd	-0.54655516
21	0x06	0.09369517
22	0xf9	-0.10931103
23	0x06	0.09369517
24	0x16	0.34354895
25	0x02	0.031231724
26	0xfb	-0.07807931
27	0xfa	-0.09369517
28	0x19	0.39039654
29	0x0d	0.20300621
30	0xf3	-0.20300621
31	0x13	0.29670137
32	0xed	-0.29670137
33	0xfe	-0.031231724
34	0xec	-0.31231725
35	0xf6	-0.15615863
36	0xee	-0.28108552
37	0x01	0.015615862
38	0xf4	-0.18739034
39	0x10	0.24985379
40	0xf6	-0.15615863
41	0xf9	-0.10931103
42	0x08	0.124926895
43	0x18	0.37478068
44	0xee	-0.28108552
45	0xf7	-0.14054276
46	0xff	-0.015615862
47	0xfb	-0.07807931
48	0x1b	0.42162827
49	0xeb	-0.3279331
50	0x06	0.09369517
51	0xfc	-0.062463447
52	0x00	0.0
53	0xfa	-0.09369517
54	0x02	0.031231724
55	0xf9	-0.10931103
56	0x0b	0.17177448
57	0x09	0.14054276
58	0x03	0.046847586
59	0xf0	-0.24985379
60	0x0a	0.15615863
61	0xf7	-0.14054276
62	0x04	0.062463447
63	0x02	0.031231724
64	0xfd	-0.046847586
65	0x05	0.07807931
66	0x04	0.062463447
67	0xfa	-0.09369517
68	0xf2	-0.21862206
69	0xfd	-0.046847586
70	0x02	0.031231724
71	0xfe	-0.031231724
72	0x10	0.24985379
73	0x12	0.28108552
74	0xf8	-0.124926895
75	0x01	0.015615862
76	0xe8	-0.37478068
77	0x0c	0.18739034
78	0xee	-0.28108552
79	0xf8	-0.124926895
80	0x05	0.07807931
81	0xfc	-0.062463447
82	0xfe	-0.031231724
83	0xe2	-0.46847585
84	0xfe	-0.031231724
85	0x06	0.09369517
86	0xfd	-0.046847586
87	0x13	0.29670137
88	0x02	0.031231724
89	0xed	-0.29670137
90	0x02	0.031231724
91	0xf3	-0.20300621
92	0x03	0.046847586
93	0xee	-0.28108552
94	0xf9	-0.10931103
95	0x03	0.046847586
96	0xfc	-0.062463447
97	0x0a	0.15615863
98	0x13	0.29670137
99	0x14	0.31231725
100	0xfe	-0.031231724
101	0x0e	0.21862206
102	0xff	-0.015615862
103	0x08	0.124926895
104	0x2b	0.6714821
105	0xf6	-0.15615863
106	0xfc	-0.062463447
107	0xff	-0.015615862
108	0xfc	-0.062463447
109	0x02	0.031231724
110	0x02	0.031231724
111	0xf0	-0.24985379
112	0xf3	-0.20300621
113	0x0c	0.18739034
114	0xf8	-0.124926895
115	0xfa	-0.09369517
116	0x01	0.015615862
117	0xf2	-0.21862206
118	0x06	0.09369517
119	0xf5	-0.17177448
120	0xfd	-0.046847586
121	0xd4	-0.6870979
122	0x29	0.6402503
123	0xf1	-0.23423792
124	0xe6	-0.40601242
125	0xed	-0.29670137
126	0xe7	-0.39039654
127	0xee	-0.28108552
128	0xff	-0.015615862
129	0xf7	-0.14054276
130	0x09	0.14054276
131	0xf9	-0.10931103
132	0x05	0.07807931
133	0x06	0.09369517
134	0x0b	0.17177448
135	0x05	0.07807931
136	0x00	0.0
137	0xf3	-0.20300621
138	0xfe	-0.031231724
139	0x02	0.031231724
140	0xf0	-0.24985379
141	0x01	0.015615862
142	0xf1	-0.23423792
143	0xf7	-0.14054276
144	0x18	0.37478068
145	0x07	0.10931103
146	0x07	0.10931103
147	0xf8	-0.124926895
148	0x05	0.07807931
149	0x04	0.062463447
150	0xf4	-0.18739034
151	0x06	0.09369517
152	0xc6	-0.90572
153	0x02	0.031231724
154	0x03	0.046847586
155	0x00	0.0
156	0x0a	0.15615863
157	0x0f	0.23423792
158	0x0e	0.21862206
159	0xfc	-0.062463447
160	0x0c	0.18739034
161	0x04	0.062463447
162	0xf9	-0.10931103
163	0x29	0.6402503
164	0x03	0.046847586
165	0x04	0.062463447
166	0x07	0.10931103
167	0xfb	-0.07807931
168	0x01	0.015615862
169	0xf1	-0.23423792
170	0xd9	-0.6090186
171	0x0a	0.15615863
172	0x03	0.046847586
173	0x0e	0.21862206
174	0xf8	-0.124926895
175	0xfd	-0.046847586
176	0xf6	-0.15615863
177	0xf2	-0.21862206
178	0xea	-0.34354895
179	0xfc	-0.062463447
180	0x05	0.07807931
181	0x05	0.07807931
182	0x0f	0.23423792
183	0xea	-0.34354895
184	0xf1	-0.23423792
185	0xe7	-0.39039654
186	0xfa	-0.09369517
187	0xfa	-0.09369517
188	0x0f	0.23423792
189	0x0c	0.18739034
190	0xff	-0.015615862
191	0xf8	-0.124926895
192	0xf4	-0.18739034
193	0x02	0.031231724
194	0xcf	-0.76517725
195	0x0b	0.17177448
196	0x0a	0.15615863
197	0x01	0.015615862
198	0x07	0.10931103
199	0xf2	-0.21862206
200	0x02	0.031231724
201	0x01	0.015615862
202	0x04	0.062463447
203	0x04	0.062463447
204	0x0c	0.18739034
205	0x01	0.015615862
206	0xe3	-0.45286
207	0x0b	0.17177448
208	0xfc	-0.062463447
209	0x01	0.015615862
210	0x01	0.015615862
211	0x17	0.35916483
212	0xf6	-0.15615863
213	0x04	0.062463447
214	0xe5	-0.42162827
215	0x02	0.031231724
216	0x07	0.10931103
217	0xfb	-0.07807931
218	0x04	0.062463447
219	0x0e	0.21862206
220	0x07	0.10931103
221	0x0d	0.20300621
222	0xec	-0.31231725
223	0xf4	-0.18739034
224	0xfd	-0.046847586
225	0xe7	-0.39039654
226	0x17	0.35916483
227	0xfb	-0.07807931
228	0xf4	-0.18739034
229	0x08	0.124926895
230	0x08	0.124926895
231	0xfb	-0.07807931
232	0x03	0.046847586
233	0xfc	-0.062463447
234	0xd9	-0.6090186
235	0x05	0.07807931
236	0x06	0.09369517
237	0x1c	0.43724412
238	0x0f	0.23423792
239	0x02	0.031231724
240	0xfd	-0.046847586
241	0xe7	-0.39039654
242	0x0a	0.15615863
243	0x01	0.015615862
244	0x03	0.046847586
245	0xfe	-0.031231724
246	0xf5	-0.17177448
247	0xfe	-0.031231724
248	0x08	0.124926895
249	0x00	0.0
250	0xfb	-0.07807931
251	0xff	-0.015615862
252	0xf6	-0.15615863
253	0x12	0.28108552
254	0x0c	0.18739034
255	0xf1	-0.23423792

sequential_1/dense_2/MatMul_bias f4 [128]
0	0xbc10fdf8	-0.008849613
1	0x3b8da6e1	0.004322872
2	0x3d661e8d	0.05618148
3	0x3d12f9b6	0.035882674
4	0x3d17d258	0.037065834
5	0x3d247495	0.040150244
6	0xbcaaca5b	-0.020848444
7	0x3d547735	0.051871497
8	0x3d261c8e	0.040554576
9	0xb97d144c	-0.00024135521
10	0x3d55679e	0.05210077
11	0x3d11e9e8	0.03562346
12	0x3cc1e4fb	0.023668757
13	0x3dabd1d7	0.08389633
14	0x3d1a7fcf	0.037719544
15	0x3cf28132	0.02960262
16	0x3c672c75	0.0141097205
17	0xbd01326d	-0.03154223
18	0x3cf6b096	0.0301135
19	0xbc99d6d9	-0.018779205
20	0x3ce8ebbb	0.028432718
21	0x3d148190	0.036256373
22	0x3d176c02	0.03696824
23	0x3d536cac	0.05161731
24	0x3d007bfc	0.03136824
25	0x3d0faf38	0.03507921
26	0x3d21fd74	0.039548352
27	0xbca99e54	-0.02070538
28	0x3d76c5ff	0.060247418
29	0xbcefeb2f	-0.029286949
30	0xbd4b5252	-0.049639054
31	0x3d30e64b	0.043188374
32	0x3cd0481f	0.025425015
33	0x3d364b0a	0.044505157
34	0xbcdb5806	-0.026775371
35	0x3cc8e722	0.024524275
36	0x3cd54bb0	0.026037067
37	0x3d1d545b	0.038410526
38	0x3d454344	0.048159853
39	0x3dd14ff5	0.10220329
40	0x3cec0188	0.028809324
41	0xbc899ff7	-0.01679991
42	0x3cc3a76b	0.023883542
43	0xbcd0cbdd	-0.025487835
44	0xbcc2477e	-0.02371573
45	0x3d2ea799	0.042640302
46	0x3d3ea86f	0.04654735
47	0x3d36848c	0.04456
48	0xbc4db24f	-0.012554719
49	0xbd038ad7	-0.03211483
50	0xbba63ba2	-0.0050730268
51	0xbcf324b1	-0.029680582
52	0xbc4ad5f0	-0.012380108
53	0xbccdbe71	-0.025115224
54	0x3d1420fe	0.036164276
55	0x3d448bee	0.04798501
56	0x3c9baef3	0.01900432
57	0xbd43d998	-0.047814935
58	0x3d86fea5	0.06591538
59	0xbcbb9fc0	-0.022903323
60	0x3bfea05b	0.0077705807
61	0x3d719f88	0.05899003
62	0x3c62c231	0.013840244
63	0x3d116b22	0.03550256
64	0x3bb415ef	0.0054957788
65	0x3d0ca063	0.034332644
66	0x3cc03be0	0.02346605
67	0xbcbf1a15	-0.023327867
68	0x3d93dc24	0.07219723
69	0x3d4cf0d4	0.05003436
70	0x3cede454	0.02903954
71	0x3d727ad3	0.059199166
72	0x3d95b052	0.07309021
73	0xbd874fd0	-0.0660702
74	0xbd83f986	-0.06444077
75	0x3c8f4860	0.017490566
76	0x3cee081f	0.029056607
77	0x3b9f3a7d	0.0048592673
78	0xbc9d1714	-0.019176044
79	0x3d1b6dcb	0.037946504
80	0x3cebfecd	0.028808022
81	0x3d893d4b	0.06701144
82	0x3d44dc93	0.04806192
83	0x3c5b4f9d	0.0133856805
84	0xbd0f070f	-0.03491884
85	0x3ccff6fd	0.025386328
86	0xbd0552ba	-0.032549597
87	0x3d602ac1	0.054728273
88	0x3d2037f9	0.03911588
89	0x3ca5c044	0.020233281
90	0x3d09626e	0.033541135
91	0x3cad1812	0.021129642
92	0xbc68356e	-0.014172895
93	0xbc6af037	-0.014339498
94	0xbc7f84cd	-0.015595627
95	0xbd19d6c6	-0.03755834
96	0x3d519701	0.0511694
97	0x3d0cb463	0.034351718
98	0x3d520653	0.051275562
99	0x3cc589ed	0.02411362
100	0xbd2c5d03	-0.04208089
101	0x3d203176	0.03910967
102	0xbcaa4acd	-0.02078762
103	0x3d12d795	0.035850126
104	0x3c70e460	0.014702886
105	0x3d45443f	0.048160788
106	0xbcb0ada2	-0.02156717
107	0x3d1963c2	0.037448652
108	0xbd2e857c	-0.04260777
109	0xbb9e7ec9	-0.0048368913
110	0xbdd65330	-0.104650855
111	0xbd356d43	-0.044293653
112	0x3d96220b	0.07330712
113	0x3d390e44	0.04517962
114	0xbd581e39	-0.052763198
115	0xbd624360	-0.055240035
116	0x3cbe4c2c	0.023229681
117	0x3d1f0c33	0.038829993
118	0x3bead3c4	0.0071663577
119	0xbcae9068	-0.021309093
120	0x3c2de2b2	0.01061313
121	0x3d028148	0.031861573
122	0xbb45e10c	-0.0030193953
123	0x3c6c6c57	0.014430127
124	0xbc6567e9	-0.014001825
125	0xbc681baf	-0.0141667565
126	0xbd49095d	-0.049081195
127	0xbd3a7d72	-0.04552979

sequential_1/dense_3/MatMul/ReadVariableOp/transpose i1 [64, 128] scale=0.012063681 zero_point=0
0	0xf7	-0.10857313
1	0xfb	-0.060318407
2	0xee	-0.21714626
3	0x18	0.28952834
4	0xf3	-0.15682785
5	0xfd	-0.036191043
6	0xf6	-0.12063681
7	0x03	0.036191043
8	0xfb	-0.060318407
9	0x14	0.24127363
10	0x16	0.26540098
11	0x07	0.08444577
12	0x18	0.28952834
13	0xe5	-0.3257194
14	0xfc	-0.048254725
15	0x06	0.072382085
16	0x1c	0.33778307
17	0xf3	-0.15682785
18	0xfe	-0.024127362
19	0x17	0.27746466
20	0xfd	-0.036191043
21	0xed	-0.22920994
22	0x08	0.09650945
23	0xef	-0.20508258
24	0x12	0.21714626
25	0xf7	-0.10857313
26	0xf1	-0.18095522
27	0xf3	-0.15682785
28	0x00	0.0
29	0xf6	-0.12063681
30	0xbe	-0.79620296
31	0x01	0.012063681
32	0x17	0.27746466
33	0x0d	0.15682785
34	0x02	0.024127362
35	0x0d	0.15682785
36	0x18	0.28952834
37	0x0e	0.16889153
38	0xfe	-0.024127362
39	0x16	0.26540098
40	0x03	0.036191043
41	0x0f	0.18095522
42	0x11	0.20508258
43	0xf5	-0.13270049
44	0xfd	-0.036191043
45	0xfb	-0.060318407
46	0xf9	-0.08444577
47	0x02	0.024127362
48	0xd9	-0.47048357
49	0xf6	-0.12063681
50	0xf6	-0.12063681
51	0xfc	-0.048254725
52	0xfd	-0.036191043
53	0x01	0.012063681
54	0x11	0.20508258
55	0x04	0.048254725
56	0x0a	0.12063681
57	0xfd	-0.036191043
58	0x0d	0.15682785
59	0x0d	0.15682785
60	0x01	0.012063681
61	0xfe	-0.024127362
62	0x0e	0.16889153
63	0xff	-0.012063681
64	0x0c	0.14476417
65	0x12	0.21714626
66	0x0f	0.18095522
67	0xf1	-0.18095522
68	0xfb	-0.060318407
69	0xf6	-0.12063681
70	0x06	0.072382085
71	0xf4	-0.14476417
72	0x09	0.10857313
73	0xde	-0.41016516
74	0xf2	-0.16889153
75	0x12	0.21714626
76	0x09	0.10857313
77	0xe1	-0.3739741
78	0x05	0.060318407
79	0x06	0.072382085
80	0x0e	0.16889153
81	0xe5	-0.3257194
82	0xec	-0.24127363
83	0x0d	0.15682785
84	0xf9	-0.08444577
85	0xf0	-0.1930189
86	0xf9	-0.08444577
87	0x0d	0.15682785
88	0xff	-0.012063681
89	0xfc	-0.048254725
90	0x1b	0.3257194
91	0x0f	0.18095522
92	0xf9	-0.08444577
93	0x05	0.060318407
94	0x0e	0.16889153
95	0xf7	-0.10857313
96	0xff	-0.012063681
97	0x13	0.22920994
98	0x09	0.10857313
99	0x08	0.09650945
100	0xf8	-0.09650945
101	0x03	0.036191043
102	0xfd	-0.036191043
103	0x16	0.26540098
104	0xee	-0.21714626
105	0xfc	-0.048254725
106	0xda	-0.4584199
107	0xe9	-0.27746466
108	0x0b	0.13270049
109	0x12	0.21714626
110	0x2d	0.54286563
111	0xfc	-0.048254725
112	0xfa	-0.072382085
113	0xf8	-0.09650945
114	0xa8	-1.0616039
115	0x25	0.4463562
116	0x07	0.08444577
117	0xf9	-0.08444577
118	0x0a	0.12063681
119	0x0e	0.16889153
120	0xdf	-0.39810148
121	0xf2	-0.16889153
122	0x29	0.49461094
123	0xd7	-0.49461094
124	0xec	-0.24127363
125	0xfd	-0.036191043
126	0x03	0.036191043
127	0xfa	-0.072382085
128	0xb6	-0.8927124
129	0x24	0.43429253
130	0x0c	0.14476417
131	0xfc	-0.048254725
132	0x06	0.072382085
133	0xe9	-0.27746466
134	0xff	-0.012063681
135	0x00	0.0
136	0x09	0.10857313
137	0x04	0.048254725
138	0xe7	-0.30159202
139	0x15	0.2533373
140	0xee	-0.21714626
141	0x10	0.1930189
142	0x07	0.08444577
143	0x0d	0.15682785
144	0x1e	0.36191043
145	0x00	0.0
146	0x02	0.024127362
147	0x13	0.22920994
148	0x1a	0.3136557
149	0x09	0.10857313
150	0xf6	-0.12063681
151	0xf8	-0.09650945
152	0x00	0.0
153	0x0d	0.15682785
154	0x07	0.08444577
155	0xf8	-0.09650945
156	0xfa	-0.072382085
157	0x05	0.060318407
158	0xc8	-0.67556614
159	0x0d	0.15682785
160	0x00	0.0
161	0x18	0.28952834
162	0x06	0.072382085
163	0x14	0.24127363
164	0x04	0.048254725
165	0x06	0.072382085
166	0xfc	-0.048254725
167	0xff	-0.012063681
168	0x00	0.0
169	0xfd	-0.036191043
170	0xfa	-0.072382085
171	0x01	0.012063681
172	0x16	0.26540098
173	0xff	-0.012063681
174	0x0b	0.13270049
175	0xfe	-0.024127362
176	0xd3	-0.54286563
177	0xfb	-0.060318407
178	0x01	0.012063681
179	0x0a	0.12063681
180	0xfa	-0.072382085
181	0x01	0.012063681
182	0x07	0.08444577
183	0xfa	-0.072382085
184	0x0c	0.14476417
185	0x09	0.10857313
186	0xf6	-0.12063681
187	0xf6	-0.12063681
188	0x11	0.20508258
189	0xfa	-0.072382085
190	0x1c	0.33778307
191	0x0d	0.15682785
192	0xfb	-0.060318407
193	0xf2	-0.16889153
194	0x14	0.24127363
195	0x0c	0.14476417
196	0xfc	-0.048254725
197	0x11	0.20508258
198	0x03	0.036191043
199	0x08	0.09650945
200	0x10	0.1930189
201	0xcf	-0.59112036
202	0xfa	-0.072382085
203	0xf9	-0.08444577
204	0xeb	-0.2533373
205	0xfe	-0.024127362
206	0xf9	-0.08444577
207	0x0b	0.13270049
208	0xfb	-0.060318407
209	0x07	0.08444577
210	0x08	0.09650945
211	0xfb	-0.060318407
212	0xf9	-0.08444577
213	0xed	-0.22920994
214	0x01	0.012063681
215	0x0b	0.13270049
216	0x11	0.20508258
217	0x0b	0.13270049
218	0x06	0.072382085
219	0x0e	0.16889153
220	0x05	0.060318407
221	0xf2	-0.16889153
222	0x0c	0.14476417
223	0x3b	0.7117572
224	0xf1	-0.18095522
225	0xfe	-0.024127362
226	0x0a	0.12063681
227	0xff	-0.012063681
228	0xfa	-0.072382085
229	0xff	-0.012063681
230	0xf6	-0.12063681
231	0xf6	-0.12063681
232	0x03	0.036191043
233	0x0d	0.15682785
234	0x14	0.24127363
235	0x1e	0.36191043
236	0xfc	-0.048254725
237	0x00	0.0
238	0xd4	-0.53080195
239	0xf4	-0.14476417
240	0xfa	-0.072382085
241	0xf1	-0.18095522
242	0xbe	-0.79620296
243	0x08	0.09650945
244	0x0c	0.14476417
245	0xfb	-0.060318407
246	0x00	0.0
247	0x0a	0.12063681
248	0x1c	0.33778307
249	0x0b	0.13270049
250	0xf5	-0.13270049
251	0x1e	0.36191043
252	0xec	-0.24127363
253	0x0a	0.12063681
254	0xfc	-0.048254725
255	0x02	0.024127362

sequential_1/dense_3/MatMul_bias f4 [64]
0	0x3d318c7a	0.04334686
1	0x3d3ace99	0.045607183
2	0x3d83096e	0.06398283
3	0xbd2713ab	-0.04079024
4	0x3d6c3ca6	0.057675026
5	0xbc346d31	-0.011012361
6	0xbc38be8e	-0.0112759005
7	0x3d2efe8b	0.04272322
8	0x3d516b55	0.05112775
9	0xbd3e2815	-0.046424944
10	0xbc279a03	-0.01022959
11	0x3c39cdeb	0.011340599
12	0x3db515b4	0.0884203
13	0xbd00af06	-0.031416915
14	0x3d7c2fdf	0.06156909
15	0x3db65827	0.089035325
16	0xbd230d66	-0.0398077
17	0xbc02c804	-0.007982258
18	0xbd9eaf9e	-0.0774834
19	0xbcb86e00	-0.02251339
20	0x3d6646a1	0.0562197
21	0x3d204683	0.039129745
22	0xbd0f1de3	-0.03494061
23	0x3d0810d1	0.033219162
24	0xbd95045f	-0.07276224
25	0x3d314e5a	0.043287612
26	0x3d78bed7	0.060728874
27	0x3acc9fec	0.0015611625
28	0xbd05fd36	-0.032712184
29	0x3d0f07ba	0.034919478
30	0x3da0ed8b	0.07857808
31	0xbd3218fb	-0.043480854
32	0xbcde26dd	-0.02711814
33	0x3d152313	0.036410403
34	0xbcb4055e	-0.021975216
35	0xbc8617c1	-0.016368749
36	0x3d277a26	0.040887974
37	0x3c934fdd	0.017982418
38	0x3c9a5836	0.01884089
39	0xbbb694c5	-0.005571934
40	0x3d89de17	0.067318134
41	0x3d2813cc	0.041034505
42	0x3da9d8af	0.08293282
43	0x3cd00e4a	0.025397439
44	0x3ca8355b	0.020533254
45	0x3c821f30	0.015884012
46	0xbcc079c0	-0.023495555
47	0x3d54084c	0.051765725
48	0x3d552a2f	0.052042183
49	0x3d127ad9	0.035761688
50	0xbc422023	-0.011848482
51	0x3da9d602	0.08292772
52	0xbcd2e37c	-0.025743239
53	0x3d421903	0.047387134
54	0x3d919707	0.07108884
55	0xbcfd6363	-0.03093118
56	0xbd0dbe3c	-0.03460525
57	0x3d4acdbc	0.04951261
58	0xbca2b95e	-0.01986378
59	0x3d136f32	0.035994716
60	0x3d73e96a	0.059548773
61	0x3d87fd8a	0.066401556
62	0xbd09a02c	-0.033600017
63	0x3d8e1ab2	0.069386855

sequential_1/dense_4/MatMul/ReadVariableOp/transpose i1 [32, 64] scale=0.0140824495 zero_point=0
0	0x05	0.07041225
1	0x10	0.22531919
2	0x0b	0.15490694
3	0x0f	0.21123675
4	0x14	0.281649
5	0xfe	-0.028164899
6	0x08	0.112659596
7	0xe7	-0.35206124
8	0xfa	-0.084494695
9	0xef	-0.23940164
10	0xf7	-0.12674205
11	0xee	-0.2534841
12	0x06	0.084494695
13	0x0b	0.15490694
14	0x04	0.056329798
15	0x07	0.09857715
16	0xf7	-0.12674205
17	0x0f	0.21123675
18	0xf4	-0.16898939
19	0xf1	-0.21123675
20	0x0f	0.21123675
21	0x14	0.281649
22	0x05	0.07041225
23	0x11	0.23940164
24	0x21	0.46472085
25	0xfe	-0.028164899
26	0x07	0.09857715
27	0xfb	-0.07041225
28	0x11	0.23940164
29	0xf3	-0.18307184
30	0xf6	-0.1408245
31	0xfe	-0.028164899
32	0xfb	-0.07041225
33	0xff	-0.0140824495
34	0xf5	-0.15490694
35	0x06	0.084494695
36	0xd5	-0.60554534
37	0x00	0.0
38	0x00	0.0
39	0xff	-0.0140824495
40	0x13	0.26756653
41	0xf3	-0.18307184
42	0xfb	-0.07041225
43	0xfc	-0.056329798
44	0x06	0.084494695
45	0xf8	-0.112659596
46	0xff	-0.0140824495
47	0x13	0.26756653
48	0x13	0.26756653
49	0x08	0.112659596
50	0x15	0.29573143
51	0x16	0.3098139
52	0xf6	-0.1408245
53	0x1b	0.38022614
54	0x15	0.29573143
55	0xfc	-0.056329798
56	0xf1	-0.21123675
57	0x07	0.09857715
58	0x06	0.084494695
59	0xfb	-0.07041225
60	0xf5	-0.15490694
61	0x14	0.281649
62	0xfb	-0.07041225
63	0xf3	-0.18307184
64	0x13	0.26756653
65	0x17	0.32389635
66	0xf9	-0.09857715
67	0xc3	-0.8590294
68	0x14	0.281649
69	0x17	0.32389635
70	0xef	-0.23940164
71	0x1a	0.36614367
72	0xf7	-0.12674205
73	0x06	0.084494695
74	0x09	0.12674205
75	0x0f	0.21123675
76	0x10	0.22531919
77	0x0f	0.21123675
78	0x0f	0.21123675
79	0x14	0.281649
80	0xed	-0.26756653
81	0xf3	-0.18307184
82	0x14	0.281649
83	0xf0	-0.22531919
84	0x09	0.12674205
85	0x03	0.042247348
86	0xf0	-0.22531919
87	0x08	0.112659596
88	0x81	-1.7884711
89	0x15	0.29573143
90	0xf7	-0.12674205
91	0x00	0.0
92	0xf5	-0.15490694
93	0xf5	-0.15490694
94	0xf2	-0.1971543
95	0x02	0.028164899
96	0xfd	-0.042247348
97	0xfe	-0.028164899
98	0xf1	-0.21123675
99	0x02	0.028164899
100	0xef	-0.23940164
101	0xea	-0.3098139
102	0x07	0.09857715
103	0x1a	0.36614367
104	0x11	0.23940164
105	0x07	0.09857715
106	0x06	0.084494695
107	0xfa	-0.084494695
108	0xe8	-0.33797878
109	0xfb	-0.07041225
110	0x02	0.028164899
111	0x01	0.0140824495
112	0xee	-0.2534841
113	0xf9	-0.09857715
114	0xe5	-0.38022614
115	0x01	0.0140824495
116	0xef	-0.23940164
117	0xf1	-0.21123675
118	0x0a	0.1408245
119	0xfe	-0.028164899
120	0xf6	-0.1408245
121	0x06	0.084494695
122	0xe1	-0.43655592
123	0x14	0.281649
124	0xf5	-0.15490694
125	0xf4	-0.16898939
126	0xfa	-0.084494695
127	0x26	0.53513306
128	0x04	0.056329798
129	0x16	0.3098139
130	0xee	-0.2534841
131	0xe9	-0.32389635
132	0xf6	-0.1408245
133	0xfd	-0.042247348
134	0xf3	-0.18307184
135	0x01	0.0140824495
136	0xe5	-0.38022614
137	0x0d	0.18307184
138	0x0b	0.15490694
139	0xfc	-0.056329798
140	0x07	0.09857715
141	0x10	0.22531919
142	0x05	0.07041225
143	0x18	0.33797878
144	0x07	0.09857715
145	0xf2	-0.1971543
146	0xd7	-0.5773804
147	0xfc	-0.056329798
148	0xed	-0.26756653
149	0x08	0.112659596
150	0xfe	-0.028164899
151	0x19	0.35206124
152	0xd6	-0.59146285
153	0xf6	-0.1408245
154	0xea	-0.3098139
155	0x1b	0.38022614
156	0xfc	-0.056329798
157	0x00	0.0
158	0xfb	-0.07041225
159	0x12	0.2534841
160	0xfc	-0.056329798
161	0xec	-0.281649
162	0xff	-0.0140824495
163	0xf0	-0.22531919
164	0x1e	0.4224735
165	0x0f	0.21123675
166	0xff	-0.0140824495
167	0xfb	-0.07041225
168	0x0a	0.1408245
169	0x03	0.042247348
170	0x0d	0.18307184
171	0xe7	-0.35206124
172	0xe5	-0.38022614
173	0x11	0.23940164
174	0x08	0.112659596
175	0xfe	-0.028164899
176	0xf7	-0.12674205
177	0xf3	-0.18307184
178	0xd1	-0.6618751
179	0x0c	0.16898939
180	0x03	0.042247348
181	0xfc	-0.056329798
182	0x09	0.12674205
183	0xff	-0.0140824495
184	0xf4	-0.16898939
185	0x05	0.07041225
186	0x25	0.52105063
187	0x14	0.281649
188	0xeb	-0.29573143
189	0xf5	-0.15490694
190	0xfc	-0.056329798
191	0x02	0.028164899
192	0x1a	0.36614367
193	0xf6	-0.1408245
194	0xfb	-0.07041225
195	0xc5	-0.83086455
196	0x06	0.084494695
197	0x24	0.5069682
198	0xf8	-0.112659596
199	0x14	0.281649
200	0xfe	-0.028164899
201	0x11	0.23940164
202	0xfe	-0.028164899
203	0x09	0.12674205
204	0xfb	-0.07041225
205	0x06	0.084494695
206	0xee	-0.2534841
207	0xf1	-0.21123675
208	0x04	0.056329798
209	0x08	0.112659596
210	0x0e	0.1971543
211	0xef	-0.23940164
212	0xe7	-0.35206124
213	0x05	0.07041225
214	0x03	0.042247348
215	0xf7	-0.12674205
216	0xa5	-1.281503
217	0xf9	-0.09857715
218	0xff	-0.0140824495
219	0x04	0.056329798
220	0xf5	-0.15490694
221	0xf4	-0.16898939
222	0x05	0.07041225
223	0xff	-0.0140824495
224	0xe7	-0.35206124
225	0xf8	-0.112659596
226	0xfb	-0.07041225
227	0xef	-0.23940164
228	0x1c	0.3943086
229	0xff	-0.0140824495
230	0x0b	0.15490694
231	0x0e	0.1971543
232	0x02	0.028164899
233	0x0d	0.18307184
234	0x10	0.22531919
235	0xf1	-0.21123675
236	0xf4	-0.16898939
237	0x10	0.22531919
238	0xf3	-0.18307184
239	0xe8	-0.33797878
240	0x04	0.056329798
241	0xf7	-0.12674205
242	0xf5	-0.15490694
243	0x0d	0.18307184
244	0xfa	-0.084494695
245	0xfc	-0.056329798
246	0x07	0.09857715
247	0xf5	-0.15490694
248	0xf5	-0.15490694
249	0x07	0.09857715
250	0x09	0.12674205
251	0xfb	-0.07041225
252	0x06	0.084494695
253	0x09	0.12674205
254	0xf6	-0.1408245
255	0x05	0.07041225

sequential_1/dense_4/MatMul_bias f4 [32]
0	0x3dc6004d	0.09668026
1	0x3d911f48	0.070860445
2	0x3d8545f1	0.06507481
3	0x3d5944e0	0.0530442
4	0x3aecdce5	0.0018071203
5	0x3d1705c0	0.036870718
6	0x3d375ffe	0.04476928
7	0x3d432733	0.047644805
8	0x3cec8ce4	0.028875776
9	0xbd0f711b	-0.035019975
10	0x3dad3263	0.08456876
11	0x3d715390	0.058917582
12	0xbc8596ff	-0.016307352
13	0xbd0bcaed	-0.034129072
14	0x3d9a79c3	0.075427555
15	0x3cc6b503	0.024256235
16	0xbb107bf1	-0.002204653
17	0x3dc5006c	0.09619221
18	0x3d78ac80	0.060711384
19	0x3d32b6f8	0.043631524
20	0x3d9e681f	0.07734703
21	0xbcfd993f	-0.030956862
22	0xbcc6465b	-0.02420347
23	0x00000000	0.0
24	0xbd8ccf73	-0.06875505
25	0x3d99ec81	0.07515813
26	0xbc67bf5d	-0.014144746
27	0xbd5f1cba	-0.054470755
28	0x3d4d6f42	0.05015493
29	0x3c035af4	0.00801729
30	0x3d4ef208	0.050523788
31	0x3d1fe6e7	0.039038565

sequential_1/dense_5/MatMul/ReadVariableOp/transpose f4 [16, 32]
0	0xbe38e766	-0.18057021
1	0x3e8dc7f6	0.2769162
2	0x3ed3061d	0.41215602
3	0xbd6c7d2a	-0.057736553
4	0xbefeb529	-0.4974759
5	0xbdfaaa9b	-0.12239572
6	0x3eaa0fe1	0.3321524
7	0xbd5ccbdf	-0.053905364
8	0x3dfa94c4	0.12235406
9	0xbeb2489f	-0.3482103
10	0xbe53c38d	-0.20680065
11	0xbe824f1b	-0.25450978
12	0x3d6c82b9	0.057741854
13	0x3ea609b4	0.32429278
14	0xbd58dc57	-0.052944507
15	0x3e788ff5	0.24273665
16	0x3e95e270	0.2927432
17	0x3d4da49f	0.050205823
18	0xbde835b2	-0.113383666
19	0x3edd632c	0.43239725
20	0x3eae28ec	0.34015596
21	0x3ea1b6c3	0.3158475
22	0xbdb62199	-0.08893127
23	0x3e079570	0.132406
24	0xbf070448	-0.5274091
25	0x3e6910d4	0.22760326
26	0x3f0dae9d	0.55344564
27	0x3e92a300	0.28639984
28	0xbb2f1b53	-0.0026719167
29	0xbe0a8b8c	-0.13529795
30	0x3e8487a8	0.25884748
31	0x3d40224f	0.04690772
32	0xbe8d2565	-0.27567592
33	0xbdb4557f	-0.088053696
34	0xbd8d89b9	-0.06911034
35	0x3f09d1df	0.5383586
36	0x3d40cff6	0.047073327
37	0x3e8753f0	0.26431227
38	0xbdddf65b	-0.10838004
39	0xbd1cbdab	-0.03826682
40	0xbf0fb51b	-0.5613572
41	0x3deb82e4	0.11499575
42	0x3e31855f	0.17336033
43	0x3e81d77d	0.25359717
44	0x3b3211e3	0.0027171306
45	0xbe929731	-0.28630975
46	0x3ec1cb64	0.37850487
47	0x3ee62b9f	0.44955155
48	0x3ebb37bc	0.3656596
49	0x3eb00d46	0.34385127
50	0xbf07b1a8	-0.53005457
51	0x3e1db3ce	0.15400621
52	0x3e096393	0.13416891
53	0x3e7f507d	0.24933048
54	0xbd86a724	-0.06574848
55	0x3e54f87a	0.20797911
56	0xbfc6c325	-1.5528303
57	0xbf0abc0d	-0.5419319
58	0x3f0b0d61	0.5431729
59	0x3e81b71e	0.2533502
60	0xbeadf84c	-0.33978498
61	0xbdc99f2f	-0.09844815
62	0xbddc5c45	-0.107597865
63	0x3e63468c	0.2219488
64	0xbc8a12c4	-0.016854651
65	0x3cd601d0	0.026123911
66	0x3f0cca7d	0.5499647
67	0x3deaa58b	0.11457356
68	0x3e6ed8ab	0.2332484
69	0xbe359e6b	-0.17736213
70	0xbf6212a3	-0.8830969
71	0xbdbdd958	-0.09269971
72	0xbea9332f	-0.33046862
73	0x3dd8f174	0.105929285
74	0x3d3cf520	0.046132207
75	0xbf113524	-0.5672171
76	0x3b9c2823	0.004765527
77	0xbe36e2b8	-0.17859924
78	0xbeae98c4	-0.34100926
79	0xbf9d13c1	-1.2271653
80	0x3e9284c1	0.28616908
81	0x3d9e3a53	0.07725968
82	0xbdcab4f9	-0.09897799
83	0x3e38f0dc	0.1806063
84	0x3cd371fc	0.025811188
85	0x3cab2890	0.020893365
86	0x3d09300e	0.033493094
87	0xbc8f8fb0	-0.01752457
88	0xbf096a30	-0.53677654
89	0xbf20a5fa	-0.6275326
90	0xbebc6fea	-0.36804134
91	0xbea4951f	-0.3214502
92	0x3d6202ea	0.05517856
93	0xbd4e895f	-0.050423976
94	0xbe6b1352	-0.22956589
95	0x3edaaae2	0.42708498
96	0x3e99b92b	0.30024084
97	0xbf92308d	-1.1421067
98	0x3daaa122	0.08331515
99	0xbe4217da	-0.18954411
100	0x3e6da6af	0.23208116
101	0x3c395bad	0.011313361
102	0x3e7d9014	0.24761993
103	0x3edc06dc	0.42973983
104	0xbe4d9b15	-0.2007869
105	0x3f2c4e5f	0.67307085
106	0xbed65683	-0.41862878
107	0x3dcbeb02	0.099569336
108	0xbd27be8d	-0.040953208
109	0x3e79a128	0.24377882
110	0xbe7f5967	-0.24936448
111	0x3e6fbc99	0.23411788
112	0xbc27d218	-0.010242961
113	0xbe948c6e	-0.2901339
114	0x3e17812e	0.14795372
115	0x3f2b4e66	0.669165
116	0xbf31e8dc	-0.6949594
117	0x3dc4596d	0.09587369
118	0xbd8af244	-0.0678449
119	0x3cfa7ba0	0.030576527
120	0x3f790a4e	0.9728135
121	0xbf14e6ca	-0.58164656
122	0x3dcce55d	0.10004685
123	0x3e8f5573	0.2799488
124	0xbe10e2aa	-0.14148965
125	0xbcf9bea4	-0.030486412
126	0xbdfdf3fb	-0.12400051
127	0x3f1717bb	0.59020585
128	0x3e65c717	0.22439228
129	0xbe776603	-0.24160008
130	0xbe3343e0	-0.17506361
131	0x3cedbc43	0.029020434
132	0xbd863957	-0.065539055
133	0x3edddaba	0.43330938
134	0x3d9812ff	0.07425498
135	0x3e866960	0.2625227
136	0xbe7277cc	-0.23678511
137	0xbf90454c	-1.1271148
138	0x3ec97483	0.39346704
139	0xbdc177d5	-0.09446684
140	0xbc11d46c	-0.008900743
141	0x3e9bd624	0.30436814
142	0xbceaf509	-0.028681295
143	0xbc070ff4	-0.00824355
144	0xbe153343	-0.14570336
145	0xbe66f854	-0.22555667
146	0xbecc1dcb	-0.3986648
147	0x3e8c7ebc	0.2744044
148	0xbdb798b4	-0.08964673
149	0xbe9d2e19	-0.30699232
150	0x3e365a25	0.17807825
151	0x3de766d8	0.11298913
152	0xbef51089	-0.47864178
153	0x3ea00972	0.31257206
154	0xbeff5f21	-0.49877265
155	0xbe94cdea	-0.2906335
156	0x3e5e1de3	0.21691088
157	0xbea7dfa5	-0.32787815
158	0xbe1d50f6	-0.15362915
159	0xbe988258	-0.29786944
160	0x3e522ed1	0.20525672
161	0xbe138428	-0.14405882
162	0x3ed6d461	0.41958907
163	0x3edadcb5	0.4274651
164	0xbece3a7e	-0.40279
165	0xbd0c654d	-0.034276295
166	0x3dc1e8d0	0.094682336
167	0xbed3013b	-0.41211876
168	0x3f8f31ff	1.1187133
169	0xbed8dd59	-0.42356375
170	0x3e0d7d85	0.13817413
171	0xbf02ae55	-0.5104726
172	0xbe52ec44	-0.2059794
173	0xbc7692b0	-0.015049621
174	0xbe9b07b4	-0.30279315
175	0x3da73a1c	0.0816538
176	0x3f1cbc55	0.6122487
177	0xbe39ada0	-0.18132639
178	0xbf153806	-0.5828861
179	0x3f0819b4	0.5316422
180	0x3f0303f0	0.51177883
181	0x3e16a9d1	0.14713217
182	0xbd5f688d	-0.054543067
183	0xbdc01ca4	-0.09380463
184	0xbf5a262f	-0.85214514
185	0xbe910034	-0.28320467
186	0x3e62fde1	0.2216716
187	0x3e1d9449	0.15388598
188	0xbd391fcf	-0.04519635
189	0x3d0acd0f	0.033886965
190	0xbf2ce060	-0.6752987
191	0x3c1c4125	0.009537016
192	0x3eccde50	0.4001336
193	0xbe21e881	-0.1581135
194	0x3e7dd5c4	0.24788576
195	0x3e210aed	0.15726824
196	0x3e0ee4c2	0.13954452
197	0xbeef480b	-0.46734652
198	0xbca31ba5	-0.019910643
199	0x3da9a709	0.082838126
200	0x3f7e4757	0.99327606
201	0x3e2a3d21	0.16624881
202	0x3e91a39b	0.28445134
203	0x3e4a8bbc	0.19779867
204	0xbe34fcf8	-0.17674625
205	0xbe406b30	-0.18790889
206	0xbd8ff9ba	-0.070300534
207	0xbe9f2832	-0.31085354
208	0x3e81a150	0.25318384
209	0x3d8ceea0	0.068814516
210	0x3f0119a6	0.5042976
211	0x3e95a4e4	0.29227364
212	0xbf1c8ace	-0.611493
213	0x3e59ab2e	0.21256706
214	0xbddf65ba	-0.10908075
215	0xbe4c70ed	-0.19964953
216	0xbdc96b91	-0.0983497
217	0x3f471b46	0.7777599
218	0x3eb63e65	0.35594478
219	0x3e936cc1	0.2879391
220	0x3e37309e	0.1788964
221	0xbf03a23c	-0.51419425
222	0x3eb93d22	0.36179453
223	0x3e247cae	0.16063187
224	0x3ee928f2	0.4553905
225	0x3e414971	0.18875672
226	0x3ef5c010	0.47998095
227	0xbec58aac	-0.3858236
228	0x3e0e9942	0.1392565
229	0x3d998f50	0.07498038
230	0x3d8769da	0.066119865
231	0x3de64845	0.11244253
232	0xbc1fb487	-0.009747631
233	0x3b6de84c	0.003630179
234	0x3ee381e0	0.44435024
235	0x3e98d234	0.29847872
236	0xbea69478	-0.32535148
237	0xbe421b08	-0.18955624
238	0x3e92e2d4	0.2868868
239	0xbebab8fa	-0.3646925
240	0xbece3441	-0.40274242
241	0x3e0ea38f	0.1392958
242	0x3ee67695	0.45012346
243	0x3e9adadf	0.3024511
244	0x3eb04315	0.3442618
245	0x3ea7dfd7	0.32787964
246	0xbe796563	-0.24355082
247	0x3da4f0ec	0.08053765
248	0x3f547783	0.8299486
249	0xbdbc8125	-0.0920432
250	0xbeb62c73	-0.35580787
251	0xbf1e0551	-0.6172686
252	0x3ed0948d	0.40738335
253	0x3e815695	0.2526137
254	0x3e294a76	0.16532311
255	0x3ea3eb6b	0.32015547

sequential_1/dense_5/MatMul_bias f4 [16]
0	0x3c3535f3	0.011060226
1	0x3e3d5f81	0.18493463
2	0xbd378f53	-0.04481442
3	0x3dc2a225	0.09503583
4	0x3d98f7ec	0.07469162
5	0x3d0973a0	0.033557534
6	0xbd890d8c	-0.06692037
7	0x3e110cf1	0.14165093
8	0x3cd49175	0.025948266
9	0x3da20172	0.07910432
10	0xbd606ad5	-0.054789383
11	0x3c9cd811	0.019145997
12	0xbb96dc1a	-0.004603875
13	0x3bbf4301	0.005836845
14	0xbc825275	-0.01590846
15	0x3ddee1cf	0.10882913

sequential_1/dense_6/MatMul/ReadVariableOp/transpose f4 [5, 16]
0	0xbf81486d	-1.0100228
1	0xbf6a55e3	-0.915373
2	0xbf38f667	-0.7225098
3	0x3eecab49	0.4622443
4	0xbe079972	-0.13242128
5	0xbf640d3e	-0.89082706
6	0x3e0dd320	0.13850069
7	0x3eeefad8	0.46675754
8	0xbf701142	-0.93776333
9	0xbe960f61	-0.29308608
10	0xbe3dd008	-0.18536389
11	0x3e978542	0.29593855
12	0xbf2c7b03	-0.673752
13	0xbd1eb9f1	-0.038751546
14	0xbf74c9bd	-0.9562033
15	0x3f08b5b9	0.53402287
16	0x3e83a019	0.25708082
17	0x3eac1559	0.33610037
18	0xbf525374	-0.8215859
19	0xbe58e0e6	-0.21179542
20	0x3f145c78	0.57953596
21	0x3f37c524	0.7178519
22	0x3dfd9c3c	0.12383315
23	0xbe192423	-0.14955191
24	0x3ea5a3e8	0.32351613
25	0xbec0a00a	-0.376221
26	0x3d7b2967	0.06131878
27	0xbf54c72f	-0.8311643
28	0xbe3c7ae0	-0.18406248
29	0xbf334988	-0.70034075
30	0xbe6e291c	-0.2325787
31	0x3f2c067d	0.671974
32	0xbeb35186	-0.35023135
33	0x3dd969a6	0.10615854
34	0x3eeab212	0.45838982
35	0x3f4c8fe8	0.79907084
36	0x3e921581	0.2853203
37	0xbed2bfed	-0.41162053
38	0xbf4ad437	-0.79230064
39	0x3de81787	0.113326125
40	0xbf070b23	-0.5275137
41	0x3c6b6e79	0.0143696
42	0xbd0e2ca0	-0.034710526
43	0x3dcdfc38	0.100578725
44	0x3f2365d9	0.6382728
45	0xbdfecc3c	-0.12441298
46	0x3f82e71d	1.022678
47	0xbf36401b	-0.7119157
48	0x3e8badf0	0.2728114
49	0x3ea93723	0.33049878
50	0x3e009a25	0.12558801
51	0xbf46bfc6	-0.77636373
52	0xbf0de429	-0.5542627
53	0x3edfc489	0.43704632
54	0x3ede40cb	0.43408808
55	0xbe85f337	-0.2616212
56	0xbdf4ebee	-0.119590625
57	0x3e8c8f89	0.2745326
58	0xbd6ac99a	-0.05732117
59	0xbea8e369	-0.32986
60	0xbf599ca9	-0.8500467
61	0xbedf80f9	-0.43653086
62	0x3f1a9e18	0.6039748
63	0xbe2cd505	-0.16878136
64	0xbee4f9fc	-0.44721973
65	0x3f257a25	0.646395
66	0x3fb21dd7	1.3915356
67	0xbe5af836	-0.21383747
68	0xbf036153	-0.5132038
69	0xbdafa034	-0.08575478
70	0xbf0cb74f	-0.54967207
71	0xbe432c85	-0.19059952
72	0x3f068297	0.52543014
73	0xbeefe078	-0.46850944
74	0x3ecbf7cf	0.398375
75	0x3f4070e8	0.7517228
76	0x3e6a803e	0.22900483
77	0x3f5aba02	0.85440075
78	0xbf354515	-0.70808536
79	0x3cda53f7	0.026651366

sequential_1/dense_6/MatMul_bias f4 [5]
0	0xbaab19e8	-0.0013053985
1	0xbda76d9d	-0.08175204
2	0x3debb565	0.11509208
3	0xbb71efd4	-0.003691663
4	0x3c8440b2	0.01614413
